TD3_torch/cheetah_actor.pth (torch_old, 532666 bytes, 6 tensors)

l1.weight f4 [400, 26]
00000000: b8a9 a9bf 5558 c9bd db39 cebf 6a34 803f
00000010: a078 03bd 8639 f3bf f69e 19be dfd7 853f
00000020: 4e57 aebf 1341 4dc0 e139 aebe d231 2a3f
00000030: 46ec 20bf d9fb 833d 7bcc 3d3f 4b0f a83e
00000040: 2986 1c40 d7d7 79be ee83 4d3e c0fb dcbc
00000050: f0ab 213e 648a 33be ad17 173e 2065 15bd
00000060: c425 55bd fc42 223d 9655 68be 74a4 c7bd
00000070: 999f 87bf 8a51 a73e beee acbd 9eb5 a4be
00000080: 409b 5cbd ca5b 5140 2d76 713d 0e35 073e
00000090: 5e86 b9be b615 7c3e d619 e53f 4ef0 013e
000000a0: 2606 903d d46f 403f 1c5e d93e fac2 cc3d
000000b0: 137f 0ebf a959 3dbd 3bca 963e d808 13bd
000000c0: f03d 1dbe 8644 2e3e 70cd 78bc 1206 26be
000000d0: 02e9 23bb a8eb 85bc 17eb 47bf 1405 94be
000000e0: 0216 b23d d609 e5bf 6609 00be dc77 8fbf
000000f0: 0595 d1bf d821 e03f 5b3f f4bf a465 23bf
00000100: e72a 00c0 24a1 143f 2f20 1a3f 0b5f 513f
00000110: 07cf 263d b7b2 f03e 8dc6 cd3d 27b7 6fbe
00000120: 2054 d4be 4850 413d 203e e8bb a830 2dbc
00000130: 9af8 ef3d fb1d 3a3e eaca d2bf 8567 3c3e
00000140: b71d 78bf 4ffd e0be 7402 30be baf5 c8bf
00000150: c18a 3a3e 3b3e b73f eed6 c2bd 3009 66be
00000160: 9396 1bbf cc55 2fbe d74a b9bf 9473 11bf
00000170: 02b1 9d3f 6fa5 513f 5ba3 743f d652 b43e
00000180: aace b8bd 7b2a ba3c b405 debd 307c 10bc
00000190: 807c a3bb e733 bf3e a125 433e 0513 dfbd
000001a0: 3a99 e53f 40af 9bbc 178a a3bf 5cbe 00bf
000001b0: fcec 47bd 91ca fe3e 3087 5dbc a0bf babf
000001c0: 06d0 0a3f 0a8b 8ebe ec4a 543f 193b 0bbe
000001d0: 0aad bd3f 44de 3fbf 74b3 19c0 8fd4 d6be
000001e0: 9ee0 a73e c17f c3be ec5c 4dc0 2ed3 05bf
000001f0: 393a 8cbf 2084 a23c 90ae 053c 0aca 9fbf
00000200: aef4 0fbe 7236 d93d 3606 e43f d776 0c3e
00000210: 07cb 4fbf fee0 ec3c 9529 10be bc44 58c0
00000220: 9050 ac3c ae78 30be 20a6 58bf 3c7d 9ebf
00000230: 0d6c 8fbf 65eb dbbf 7f62 53bf 91df 463e
00000240: 4e2d 81bf 7685 b23f 2ce9 273f 9133 723f
00000250: ef8b 2dbf 0416 9e3e 3d2d c63c 2e36 84bd
00000260: 6b5b 12be ee0f 0e40 0145 013e b928 40be
00000270: 3bee c43e cfdd 2c3e 0bbc 81be 96d0 09bf
00000280: 42cb f13d b245 cfbf fb03 2f3e 462f 363f
00000290: aa73 f53f 0908 253f 3fe2 873f 1587 0e3f
000002a0: 11d7 9f3f 64dd 153d 3e7a 373e 9736 c63d
000002b0: 4c20 44c0 23a4 53bf 0e44 9cbe c17f 31bf
000002c0: c5ea 6abd 100c ffbd 4133 223e 69ce b1bf
000002d0: 4223 37be c853 f63c 5367 63c0 faca 2abe
000002e0: bf3c 25bf e9fc 1fbc 28eb bb3c adf6 e8bf
000002f0: b43e 2bbd 84ba 9640 699e 9cbe 84ce d3bf
00000300: 9e6b 41bf 4c17 00bf 9706 8bbe 7569 ddbc
00000310: b86e 3dbd 157f 033f 6dc3 00bf b88f 2d3f
00000320: c157 67bf 95eb b73e 771c 99be ea31 ff3d
00000330: 6d83 06be 1afc 5e3e 96f4 d73d a635 d73d
00000340: 5f50 a240 a2ed c13d 88aa 6bbe 3a5f b53f
00000350: ccc5 613d df97 413e ee59 a93d f1cb d43f
00000360: 2c16 2cbf 53d7 24bf dca0 77bf 1b4f a43f
00000370: 949f 8abf 25e5 dc3e 8f67 aebf 348f 80bf
00000380: 3990 da3d a6d5 76be fbbd b13c f18a 0b3d
00000390: 7ee3 913e d850 16be 20e2 b8bc 42f8 07be
000003a0: 80de 19be d57e 173e 3e0a d63f ab9f 2b3e
000003b0: 5d0b 0dbf 2f8e 72be 0e02 c83d 3393 a43f
000003c0: 2373 373e 14a1 a1c0 8169 4940 9258 9f3f
000003d0: a6a8 d5bb 29af 0c3f 9eb4 c03f 24e0 83be
000003e0: 3ca6 a5bf 1daa d4be 0c84 a1bf 781e 74bf
000003f0: c4d4 89bf acda 1c3f 82f2 debe 28e6 853c
-1.3254919 -0.09831301 -1.6111406 1.0015996 -0.03209746 -1.900193 -0.15002045 1.0456504
-1.3620393 -3.2070968 -0.34028533 0.6648227 -0.62860525 0.064445205 0.7414014 0.32824168
2.4456885 -0.24398743 0.20069858 -0.026975513 0.15788245 -0.1753326 0.14755125 -0.036473393
-0.05203797 0.039614663 -0.22688898 -0.09748164 -1.059558 0.32679397 -0.08443974 -0.32169813
-0.053858995 3.2712274 0.05895059 0.13203833 -0.36235327 0.24617657 1.789851 0.12689325
0.07032423 0.75170636 0.42454612 0.09998126 -0.5566265 -0.046228085 0.29451165 -0.035897106
-0.15355659 0.17018327 -0.015185699 -0.16213253 -0.002501071 -0.016347721 -0.78093094 -0.28910124
0.08695604 -1.7893627 -0.12503585 -1.1208453 -1.6373602 1.7510328 -1.9081835 -0.63826966
-2.0026186 0.5805838 0.6020536 0.8178565 0.04072478 0.4701135 0.10047636 -0.23409711
-0.41470432 0.047195703 -0.007087484 -0.010570683 0.11717339 0.18175499 -1.6468174 0.18398865
-0.9692034 -0.4394326 -0.17188436 -1.569999 0.18216993 1.4315866 -0.09513651 -0.22464442
-0.60776633 -0.17122573 -1.4475964 -0.56816983 1.2319643 0.81893057 0.9556176 0.3521945
-0.09023793 0.022725334 -0.108409315 -0.008818671 -0.004989207 0.37344286 0.19057323 -0.108922996
1.7937386 -0.019004464 -1.2776517 -0.50290465 -0.04880999 0.4976392 -0.013521001 -1.4589729
0.5422367 -0.27840453 0.8292682 -0.13596763 1.4818432 -0.74948525 -2.401578 -0.41959044
0.32788557 -0.38183406 -3.2087965 -0.5227536 -1.0955268 0.019838393 0.008159295 -1.2483532
-0.14058182 0.10606088 1.7814395 0.13717209 -0.8116917 0.028915878 -0.14078362 -3.3791952
0.021034509 -0.17233536 -0.84628487 -1.2381968 -1.120485 -1.7181212 -0.8257217 0.19421221
-1.0091951 1.3946979 0.6559017 0.94609934 -0.67791647 0.30876172 0.024191493 -0.064556465
-0.14292686 2.2197223 0.12623979 -0.18765534 0.38463005 0.16881488 -0.25338778 -0.538339
0.118063465 -1.6193144 0.17091362 0.71165884 1.9175923 0.64465386 1.061592 0.5567487
1.2487508 0.036588088 0.17917725 0.09678381 -3.0644712 -0.8267233 -0.30520672 -0.6933556
-0.0573528 -0.124534726 0.15839864 -1.3891116 -0.17884544 0.030069247 -3.5531814 -0.16678992
-0.64545816 -0.009764888 0.02293928 -1.820028 -0.041807845 4.710268 -0.30589607 -1.6547399
-0.75554836 -0.5003555 -0.27153465 -0.027027825 -0.046248168 0.51365787 -0.50298196 0.6779742
-0.90368277 0.35921922 -0.2990453 0.12460692 -0.13136072 0.21775857 0.10544698 0.105082795
5.072311 0.09469153 -0.23014271 1.4169686 0.055120274 0.1890559 0.08269106 1.6624738
-0.6722133 -0.6439106 -0.96729827 1.2836641 -1.0829949 0.43143573 -1.3625354 -1.0043702
0.106720395 -0.24104938 0.021697035 0.03406805 0.28493875 -0.14679277 -0.022568762 -0.13278297
-0.15026283 0.14794476 1.6721876 0.16760127 -0.55095464 -0.23687051 0.09766017 1.2857422
0.17915015 -5.050913 3.1470644 1.2448905 -0.0065203486 0.54954773 1.505512 -0.25756943
-1.2941356 -0.41536036 -1.2618423 -0.9535899 -1.0768056 0.61271167 -0.43544394 0.016345099

l1.bias f4 [400]
00000000: fa32 e8bf cd47 97bf 0088 61bf 2b60 3cbf
00000010: 5502 a9bf a5c6 45bf 1b2b ec3c acbe 2dbf
00000020: 8138 9dbd 5f14 13bf 422c 78bf 22aa e8be
00000030: 1f8b 75bf e264 263e 3e11 47bf 10c8 a7be
00000040: 8da4 8cbf 03bf babf 297c 97bf 874b 95bf
00000050: 2ba5 dcbb a003 143d b281 92be ab52 9a3e
00000060: bcad 93bf 3530 a6bd a9ac 90bf aa94 d1bf
00000070: 381b 73be 8ef5 75bf 5a3a 46bf 8031 cebe
00000080: 9408 2c3f 0b1b 01be e347 35bf 2b25 33be
00000090: 981d a6bf e827 5ebf 299d 1d3e a5e9 b0bf
000000a0: df1d 65bf 2ba8 163f 094a 3cbe bf71 263e
000000b0: 8997 b5bf dda8 3cbf 1a68 0b40 1e2b 95bf
000000c0: f6a5 35be 5d56 91bf 4e64 093f 4b8f 403d
000000d0: 39df cfbf c801 c9bf 8b01 65be fbdf 96bf
000000e0: 645a 473f 1ec1 0fbf 729b 2abf 8160 20bf
000000f0: 079c 7fbf cc20 48bf 476c b3bf c909 8f3f
00000100: cafe b4bf 35c5 5a3f b68f 1fbf bde3 13bf
00000110: 5ac7 9abf f9bc 73bf b4dc a5be 8af2 35bf
00000120: beee 89bf 4274 37bf 0de7 83bf 9ee2 bebf
00000130: 904c cbbf 7208 71be 512a ab3f 96ea f7bd
00000140: af38 c43d 9b0c 44bf 3298 563f a2fe dcbf
00000150: 5bb3 96be 8a62 94be 690b 7fbf 2e49 e4be
00000160: e107 da3e 904c 70bf 279e 49bf f248 d2be
00000170: c0d1 cd3e 0747 8dbf 1199 af3e 533d 92bf
00000180: 0286 64bf f865 32bf 3b0c b33e 9ea7 cc3f
00000190: b224 55bf 7f9d 7f3d f179 eebe 9591 2ebf
000001a0: b72c 39bf 07a1 953d a6db babf 1cbc 83be
000001b0: 79d8 8b3f 06f6 843d 3334 95be 68a2 eebe
000001c0: 392d b4bf b12a 7bbf 6d52 a9bf fcfc 4dbf
000001d0: b51f 2dbe 8362 51bf 78ce 4cbe cd5e 90bf
000001e0: 2236 73bf 78da 703f dd81 03bf be72 8fbf
000001f0: df4f 2d3f 76f2 1abf fc73 8a3e 241a 44bf
00000200: a4d0 b6be 2cdd b0bf 022e c5bf 39f0 a7bf
00000210: ace2 06bf 8c1a dd3d dc63 86bf 08f5 78be
00000220: f0d1 26bf 5c66 6cbf e6bb 62bf f685 a1bf
00000230: c660 a7bf 3962 87bf d361 93bf d0f6 0ebf
00000240: a756 a1bf 606f f9bd 8962 de3d d345 683d
00000250: 5e20 d1bf 105e 9ebf 60c1 1ebf a5d2 49bf
00000260: fcd9 27bf 69cf dcbe af77 72bf 052a 1bbe
00000270: bc9f adbe 60a6 e8be 254d 37bf 0890 0dbe
00000280: eabc db3e 733d 51bc 48d0 72be f69e 913e
00000290: 59cc d1bf 6450 a6bf 250f 1cbe 6606 243f
000002a0: 6614 20bf 524c ebbe 27d6 0cbf 89f8 3abf
000002b0: 67be 1abf 1a99 7dbf 838c a8bf 49b1 0fbf
000002c0: 08d5 d8be a1c5 7fbf 074b f8bf 70db 18bf
000002d0: 9e94 27bf 7f7f aabf 9a0a 7bbf c826 0e3f
000002e0: c762 86bd c54c 40bf 35af 74bf feaf b0bf
000002f0: 4657 83be d8c4 0abf 3b10 87bf 06c7 a9be
00000300: 0762 54bf d720 8c3e be9a b1bf eff1 653e
00000310: a64f 8cbe 7c10 76bf 4968 6dbe 15e7 58be
00000320: 79d5 abbf 6f56 1dbf 21aa 4cbf 5085 27be
00000330: a2f9 aebe 148d 2e3f ca77 ae3e 3277 dcbe
00000340: 4dc1 fabe b287 41bd 157c c2bf debe ac3f
00000350: a084 5cbb 351a 6fbf 6321 b83e b25a e93e
00000360: 4f88 16be f576 99bf ed4e aebf 2565 65bf
00000370: 1013 7abf d19d a4bf faab 2bbf 1740 1b3f
00000380: ee5d 43bf 72e6 07bd 2953 1abf 277b 9dbf
00000390: 6296 86bf c6f9 4ebf 8abe 6bbf 4377 06be
000003a0: a08b 7dbf a6bb e4bf f6c1 66bf d662 17bf
000003b0: 2ff9 64bf ae43 f1be f14d 15bf fff5 94bf
000003c0: b8df a5bf 26ce bbbd e386 7bbf fa97 38bf
000003d0: f14d f7be 09f2 8dbf a0da 03bf 4b36 3ebe
000003e0: 1169 9b3f 601c 21be 55b3 2e3f 4ba5 48bf
000003f0: 4fec a0bf f645 a4bd 1585 c53e 910e 4abf
-1.8140557 -1.1818787 -0.88098145 -0.7358424 -1.3203837 -0.7725623 0.028829148 -0.6786907
-0.07676793 -0.5745296 -0.9694253 -0.454423 -0.95915407 0.16249421 -0.77760684 -0.32769823
-1.0987717 -1.4589542 -1.1834766 -1.1663674 -0.0067335567 0.03613627 -0.28614575 0.30141196
-1.1537395 -0.081146635 -1.1302692 -1.6373494 -0.23740852 -0.9607781 -0.7743279 -0.4027214
0.6720059 -0.12607972 -0.70812815 -0.17494647 -1.2977781 -0.8677964 0.15391983 -1.3821303
-0.89498705 0.58850354 -0.18387617 0.16254328 -1.418687 -0.73695165 2.1782289 -1.1653783
-0.1773909 -1.1354481 0.5366868 0.047011655 -1.6239997 -1.5703669 -0.2236387 -1.1787103
0.778723 -0.5615405 -0.6664344 -0.62647253 -0.99847454 -0.78175044 -1.4017419 1.1174861
-1.4140255 0.85457164 -0.6232866 -0.57769376 -1.2092087 -0.95210224 -0.32394946 -0.7107321
-1.0775983 -0.7166177 -1.0304886 -1.4912908 -1.588274 -0.23538378 1.3372289 -0.121052906
0.09581124 -0.76581734 0.8382598 -1.7265208 -0.29433712 -0.2898143 -0.99626786 -0.44587082
0.42584136 -0.93866825 -0.78756946 -0.41071278 0.4019909 -1.1037301 0.34296468 -1.1424965
-0.8926698 -0.6968684 0.3497027 1.5988653 -0.8325912 0.06240606 -0.4657741 -0.6819089
-0.72333854 0.07306104 -1.4598281 -0.25729454 1.0925437 0.06492238 -0.29141387 -0.4660828
-1.4076301 -0.98112017 -1.3228279 -0.8046415 -0.16906627 -0.8179094 -0.20000637 -1.1278931
-0.95004475 0.94083357 -0.5137003 -1.1206892 0.677 -0.60526216 0.27041614 -0.7660239
-0.35706055 -1.3817496 -1.5404665 -1.3120185 -0.52689624 0.10796079 -1.0499225 -0.24312222
-0.6516409 -0.9234369 -0.8856796 -1.2619007 -1.3076408 -1.057685 -1.1514229 -0.55845356
-1.2604569 -0.12179446 0.10858638 0.056707215 -1.6338003 -1.2372456 -0.62013817 -0.78837043
-0.6556699 -0.4312699 -0.9471387 -0.15152748 -0.3391093 -0.45439434 -0.7160209 -0.13824475
0.42917567 -0.012770998 -0.23712265 0.2844159 -1.6390487 -1.2993283 -0.15240152 0.64072263
-0.62531126 -0.45956665 -0.5501427 -0.73035485 -0.6044678 -0.9906174 -1.3167881 -0.5612989
-0.4235003 -0.9991093 -1.9397897 -0.59709835 -0.65461147 -1.3320159 -0.9806305 0.55527925
-0.06561809 -0.7511714 -0.95579845 -1.3803709 -0.25652522 -0.5420661 -1.0551828 -0.33159655
-0.8296208 0.27368805 -1.3875349 0.22455572 -0.27404517 -0.96118903 -0.23184313 -0.21181901
-1.3424522 -0.6146001 -0.79947096 -0.16359448 -0.3417483 0.6818402 0.34075767 -0.4305969
-0.48975602 -0.04724855 -1.5194117 1.3495748 -0.0033648387 -0.93399364 0.35962972 0.45577008
-0.14700435 -1.1989428 -1.3617836 -0.8960746 -0.9768534 -1.2860662 -0.6705929 0.6064467
-0.763152 -0.033178754 -0.6028314 -1.2303208 -1.0514643 -0.80849874 -0.92087615 -0.13131432
-0.99041176 -1.7869766 -0.9013971 -0.59135187 -0.89442724 -0.47121948 -0.58322054 -1.1637572
-1.2958899 -0.09170179 -0.98252696 -0.721069 -0.48301652 -1.1089488 -0.5150547 -0.18575399
1.2141439 -0.1573348 0.6824239 -0.7837722 -1.2572116 -0.080211565 0.38578096 -0.78928477

l2.weight f4 [300, 400]
00000000: f7cf debd 05be 1cbd 0c8e f33c 8f71 adbd
00000010: dc9a d7bb e9b4 e8bc e739 b7bd 5daa 4e3d
00000020: d4e8 0fbd c2f6 043b 67c8 fbbb 0ddc 46ba
00000030: e3d9 e83b ea43 8abc fbca 7dbd 4563 143d
00000040: 3db4 9abc 0f61 54bd a1b7 79bd efd6 81bc
00000050: 5063 123d c150 0b3d e5bd febc bf72 0c3c
00000060: 2373 fbbc 6de9 b8bd 1bff 20bd 24c4 143c
00000070: cf28 e7bc da37 57b9 4bd0 e83c 603d f4bc
00000080: d64c 97bd b8ea b1bc ba29 82bc 0489 4cbc
00000090: 211b 0ebd ca05 aebc 7807 67bd c34c e1bc
000000a0: 061f b63c 8f3f e3bc f757 cabd 9bc6 fb3c
000000b0: 948a b0bd 0654 02bd ee23 0dbd fefe bdbc
000000c0: 61e9 9dbd dd0a 173d 5e93 9f3c 1613 8a3b
000000d0: fe18 1c3c 47b1 02bd d0f0 22bd 3f67 d4bc
000000e0: 40a8 823c 2566 a63a 44cf f0bb cfd1 3b3c
000000f0: 2796 95bd 6a8e 1e3b 6ca0 90bd bbbf e1bb
00000100: 84b5 51bd 92ef f1bc 7802 f5bc 9890 2cbd
00000110: c925 e3bc 42a4 efbc 0a0a 423c 4836 eabc
00000120: 00fc 54bc e239 a53c 2935 1dbd b6fa f5bd
00000130: 3df2 4abd 7a27 853c 10db c83b a13b d3bd
00000140: 1776 04be 3b0b 22bc 3891 73bd 0bd3 483c
00000150: 4b6c f9bc cb57 84bd 8b55 84bd 3b30 4bbd
00000160: 3656 393b cc10 053d 0919 29bd 2632 a4bd
00000170: 47fc f8bd ddb0 24bd 6808 69bd 5042 cabc
00000180: 97e9 5fbd 3b28 4cbc 86be 0ebd a89f 92bd
00000190: e2fc ecbb c6a3 803d 6ee7 a1bb bf70 0dbc
000001a0: 8183 b8bd 6d63 92bd 592a 4c3d 5cfb 99bd
000001b0: ee85 36bd 0f5a 75bd 9089 5dbd 6699 cabc
000001c0: 4906 c9bd 7274 04bd e85e 2d3b 5a9b 91bb
000001d0: 19a3 8bbc c15b 4dbd 96d2 90bd d899 adbc
000001e0: 77a4 85bd 34e0 d9bb 6f82 3dbd 38e5 943c
000001f0: 2c62 d8bd c42c 223c e742 4b3b 209f 0a3d
00000200: 8a31 0a3d 9ca0 a9bd b640 d2bc 6d7d ffbc
00000210: 36f2 87bd cb84 583d 041c e1bc 63d6 e9bc
00000220: f77b c9bd f318 783c f1ea 0abd 9844 813b
00000230: c8b4 0bbd 7d07 a1bd 8b3e 9abd fd2e ea3c
00000240: 1e2a a33a 3716 4dbd ab67 afbd 7b5e 80bc
00000250: 47a5 b6bd 523a 27bd 0751 743b 1ca7 6fbb
00000260: 68b7 25bd 7e97 65bd ba76 71bd 4eb4 1fbd
00000270: 74c1 eb3b 48d9 47bd 8477 0ebd 22f5 76bd
00000280: 88f5 a3bd 4a32 24bd f72b d839 c3eb c4bc
00000290: 958e 983c bb9e b0bd 71ec 2abd 0b66 103d
000002a0: 279a 8abb 1b38 a03c 7599 353d 9c45 9fbd
000002b0: cad8 c8bb c125 ae3b 2a68 06bd 1023 f83c
000002c0: 6de6 27bd 3d1e debd 040d a3bc a391 73bd
000002d0: f249 b0bd 1309 21bd 47e7 13bd 3ea6 d2bd
000002e0: a9b3 8dbd 3b48 bebb e444 acbc 5d35 8abc
000002f0: 1233 01bc 61e4 d2bd 8bc5 18bd c2ef 70bc
00000300: 5408 9cbc 8cae 82bb 7f75 69bb 88f5 0cbd
00000310: 5aef 8bbd 9e07 fb3c 4138 743c 5b82 9cbc
00000320: ff00 8c3c ef3d 21bc 6a3e 97bc 0082 8bbd
00000330: d851 513c bbed 34bd eafa c33b aa6a 82bd
00000340: aae2 7bbd 4716 1c3d 3ac7 f4bc 8f91 aabd
00000350: 4b2f 96bd d0a6 1dbd 111d 063c a4ee e9bd
00000360: 8299 12bc 9ff2 a3bc a665 5abd 9369 8e3b
00000370: e36e d0bc ed90 833c a60e 0fbd 79ea bdbd
00000380: 81a7 b63b 5ce2 7abd 571e e4bb f6c9 98bc
00000390: 283a 40bd 5408 893c ad89 21bd 5f0e 563d
000003a0: c179 c4bd df68 cbbc 673a c1bd 5959 8c3c
000003b0: 47f3 44bd 686d 04bd a7b0 85bd c480 3f3d
000003c0: 769b 96bd 4cec 5bbd c6dd 653d b191 acbd
000003d0: 238c c6bc 3f3f e0bc 16a2 06bd 348f a03c
000003e0: c2cf 373c 6f97 b73a 80a9 b6ba 4982 8e3c
000003f0: eef5 83bd 2b1a 05bc b99c ba3c 8fb6 02be
-0.1087951 -0.038267154 0.02973082 -0.08468925 -0.00657974 -0.028406577 -0.08946591 0.05045544
-0.03513415 0.002028868 -0.007683802 -0.00075858907 0.0071060522 -0.016878087 -0.061961155 0.036227483
-0.018884772 -0.051850375 -0.060966138 -0.015849559 0.035739243 0.03401256 -0.031096408 0.0085722795
-0.03069455 -0.090288974 -0.039305788 0.009079967 -0.028217701 -0.00020524804 0.028419634 -0.029814422
-0.07387702 -0.021718368 -0.015889037 -0.012483839 -0.03469384 -0.021242995 -0.056403607 -0.027502423
0.02223159 -0.027740268 -0.09880059 0.03073435 -0.08620182 -0.031818412 -0.034458093 -0.023192879
-0.07710529 0.036875594 0.01947945 0.004213701 0.009527443 -0.031907346 -0.039780438 -0.025928138
0.015949368 0.0012695236 -0.0073489267 0.0114635965 -0.0730403 0.0024193772 -0.07061848 -0.006889311
-0.051198497 -0.029533181 -0.029908404 -0.042130083 -0.027727978 -0.029253129 0.011843214 -0.028590336
-0.012999535 0.020169202 -0.038380776 -0.1201071 -0.049547423 0.016254175 0.00612963 -0.10314108
-0.12935673 -0.009890373 -0.059464663 0.012257348 -0.030447146 -0.06462058 -0.064616285 -0.049606543
0.0028280145 0.032486722 -0.04128364 -0.080173776 -0.12157493 -0.040207732 -0.056892782 -0.024689823
-0.054666128 -0.012460764 -0.034849666 -0.07159358 -0.0072322944 0.06281237 -0.0049409186 -0.008632838
-0.090094574 -0.0714787 0.049845073 -0.07518646 -0.04456132 -0.05990034 -0.054086268 -0.02473135
-0.09815652 -0.032337613 0.0026454274 -0.004443568 -0.017045544 -0.05013633 -0.07071416 -0.021191522
-0.0652551 -0.0066490415 -0.04626697 0.018175706 -0.105656 0.009898368 0.0031015219 0.03384316
0.03373865 -0.08282587 -0.025665622 -0.031187737 -0.06637995 0.052861016 -0.02747918 -0.02854461
-0.098380975 0.015142667 -0.033915464 0.0039449446 -0.034107953 -0.078627564 -0.075314604 0.028586859
0.0012448465 -0.050070014 -0.08564695 -0.015670052 -0.08918243 -0.040827103 0.0037279741 -0.003656811
-0.040458113 -0.056052677 -0.058951117 -0.03899031 0.0071946923 -0.0487912 -0.034781948 -0.06029237
-0.08005816 -0.040087022 0.00041231487 -0.024038201 0.018622676 -0.086240254 -0.041729394 0.035253566
-0.004229802 0.019558003 0.0443358 -0.07776949 -0.006129359 0.005314559 -0.032814182 0.030290157
-0.040991236 -0.10845611 -0.019903667 -0.059465062 -0.08607854 -0.039315294 -0.036109235 -0.102856144
-0.06919033 -0.0058069504 -0.021028943 -0.016871149 -0.007885711 -0.10297466 -0.037297767 -0.0147056
-0.01904694 -0.0039880928 -0.0035623012 -0.034413844 -0.06832762 0.03064328 0.01490599 -0.019105127
0.017090319 -0.009841426 -0.018462379 -0.06811905 0.012775861 -0.04417203 0.005980839 -0.06368001
-0.06149546 0.038107183 -0.029880155 -0.08328544 -0.07333239 -0.038489163 0.008185641 -0.1142247
-0.008947732 -0.020013152 -0.053319596 0.0043460815 -0.0254435 0.016060317 -0.03492608 -0.09273238
0.0055741672 -0.06125103 -0.0069616246 -0.01865099 -0.046930462 0.016727604 -0.03943794 0.0522598
-0.09593535 -0.02483028 -0.094349675 0.017132448 -0.04808357 -0.0323309 -0.065278344 0.04675366
-0.073538706 -0.053692147 0.056119703 -0.08426226 -0.024236744 -0.027373908 -0.03286942 0.019599535
0.011218967 0.0014006923 -0.0013936013 0.01739611 -0.06443392 -0.008123915 0.02277981 -0.12764953

l2.bias f4 [300]
00000000: 4b34 4fbd 3a65 27bf c661 82bf 0049 a4be
00000010: f6b3 81bf 4fe9 c6bd 662f c6bd 87f5 8dbf
00000020: 5257 07c0 cc22 cebe 2d03 b7be d747 86bf
00000030: 1f17 8dbf 3dd8 12bf 0dbe 4cbf f50d 82bf
00000040: 1f3f debe 42d9 c2bd 7ad6 13bf a40e abbe
00000050: b030 1ebe dd03 46bf a403 4bbd a296 6ebf
00000060: 35a4 d6bf 38bc 74bf cd9e 92bf 2e80 aebf
00000070: 415a 36bf e927 93be 9ea1 a4bd 618f e43e
00000080: f081 7dbf 8553 66bf c4bd cabe 25cc 7bbf
00000090: 2cd5 d2be cf1f 5b3f 1163 e5be a4b4 45be
000000a0: d82d b5bf b418 87bf 3130 44bf eaa1 6bbf
000000b0: 232e 68bf d7e0 e8be 7e7c eabe 7431 17bf
000000c0: 43fc 37bf 4e34 82bf 30e5 80bf ac59 92bd
000000d0: 4d9d 3a3f 6602 25be 4c77 e33c 946b d5bd
000000e0: 90c2 1cbf f4b8 733f 94e2 cebf ae34 18bf
000000f0: f4dd 88bf 8852 0ebf f6a4 b2bf 2610 65bf
00000100: bde3 6dbf f688 1fbf 3803 a2be d080 2abd
00000110: 3d49 69bf 23ae dfbe b81b c8be 608b 0dbf
00000120: 0382 42bf a93a 06bf 3f8c febd c935 ddbe
00000130: 207c 153f f3a7 b7bd 5c1b dabd 2256 7bbf
00000140: c549 a23f 5228 9dbf 6bea a2bd 2df0 243d
00000150: 08ce 51bf 1458 a5be 32fe 30bd e80e b1bd
00000160: 9c97 9abf 519a 213f f6a5 60bf bf4d e4be
00000170: c97d 3dbe dc69 b3be 6ba3 f43e 9a3a 13bf
00000180: fead 11bf f988 dfbd a7f1 b6bf 91e3 be3f
00000190: 3e85 6d3f 1333 8ebe be90 2bbf 56f4 a4bf
000001a0: 7afb 1340 068c 15bf a91f 513e 410a 193e
000001b0: 26b9 03c0 7818 0dbd fe05 073f 4b8f 4dbf
000001c0: c59f dfbf 066a 95bd bb95 58bd f700 98bd
000001d0: dd60 bebd cca2 0dbf e435 98bf 35c0 2bbf
000001e0: a353 eabd ee16 4abf 431b 8abf c39d b0bd
000001f0: 7c24 923f 443b f4bf 7708 e5be 3f5a 1640
00000200: 6f7e 23be cad3 66bf 7e6f d1bf 0393 84be
00000210: 78aa 90bf 7018 1dbe 7a86 14bf ea9b 67bf
00000220: f38b 71be 9d41 5f3e d1ae 49bf 220f 8ebf
00000230: 0881 10bf f381 f5bf d515 48bf 5d4e dcbd
00000240: 5ca1 6cbf 0f48 8ebf 9fdc d1be 7354 5bbf
00000250: 30de f0bb 8d40 febd 309e 37bf 5476 d8bc
00000260: 19bc 38bf 8ed0 5abf a878 75be 546f b3be
00000270: 7a76 c53f f368 a2bd b8d7 e6bd 4048 b6bf
00000280: 17e3 8cbc 18c6 4dbe 9801 9e3f 8b05 a6bd
00000290: 8b00 cb3d 308b 23bf 9a66 a7bf fad2 4bbf
000002a0: f814 6bbf 0104 0cbe 4b53 b7bf 017b a2bf
000002b0: bb6d 30bf 07ee b5be ef6d b7bb 1fea b9bf
000002c0: 56bc 2ebf c9bf 8ebe 900b 39be da32 99bf
000002d0: 5601 93bf 5b96 11be e9ed 34bf a234 b4bf
000002e0: 9b33 81bf ac7d 1dbf 759f 00bf 2b23 a5bf
000002f0: dc48 16bd 22fe 95bd e707 edbd 6b5a 84bd
00000300: ed48 423f acf5 6abf 1831 a4bf 5fef dbbd
00000310: 42d9 a63d 6499 ac3e 8b1b b4be 4e6f fbbf
00000320: 54ff bdbe 1e4e acbf 68f6 46bf c8e2 88bf
00000330: f485 ef3d 4659 003f e166 28bf f2ac d1be
00000340: 203d d53f 04d3 1cbf a586 0cbd b558 f5be
00000350: 993b d23e 9963 cbbe d274 1abf e526 f0bd
00000360: db9d 943f 334e 17bf a053 55bf 071c 6abf
00000370: 76f9 42bf 5963 62bf cefd 8bbf 06f4 debe
00000380: 0a2f 0c40 a5d7 cdbe 4c7d babd b25e 2abf
00000390: 4dcb 83be 44c8 8a3e f182 aabd 21a1 8bbf
000003a0: 180c 46bf abf6 92bf ff11 40be 5986 783e
000003b0: eef3 a4bd 6438 04bf 1ee5 39be b0cc ab3e
000003c0: 275d d23f 6cd5 febe a92e 59bf bc8a eebf
000003d0: 4678 9abf 6826 cdbe 0ac5 51bf 7b2a b3bd
000003e0: 7b8e 6ebf 6c51 53bf 9c2c 9dbe 605c ffbe
000003f0: 32d7 68be 33a5 e93f 13bd f8be 30bc 1abd
-0.05058698 -0.65388834 -1.0186088 -0.32086945 -1.0133045 -0.09712469 -0.09677009 -1.1090554
-2.1147046 -0.40260923 -0.3574461 -1.0490674 -1.1022681 -0.57361203 -0.79977494 -1.0160509
-0.43407533 -0.09514095 -0.5774914 -0.33409607 -0.1544826 -0.77349645 -0.04956402 -0.931986
-1.6768862 -0.955997 -1.1454712 -1.3632867 -0.71231467 -0.28741387 -0.080386385 0.4464064
-0.99026394 -0.8997119 -0.39597905 -0.98358375 -0.41178262 0.8559541 -0.44802144 -0.1930719
-1.4154615 -1.0554414 -0.76636034 -0.92043936 -0.906954 -0.4548404 -0.45798105 -0.59059834
-0.71869296 -1.0172212 -1.0069942 -0.0714601 0.7289627 -0.16114196 0.027766846 -0.104209095
-0.6123438 0.9520409 -1.6162896 -0.5945538 -1.0692735 -0.5559468 -1.3956592 -0.89477766
-0.92925626 -0.6231836 -0.3164308 -0.04162675 -0.9112738 -0.43687543 -0.39083648 -0.55290794
-0.7597963 -0.5243326 -0.124290936 -0.43205097 0.58392525 -0.08967581 -0.1064975 -0.98178303
1.2678763 -1.227793 -0.07954868 0.040268112 -0.81955004 -0.3229376 -0.04321117 -0.08645421
-1.2077518 0.63126093 -0.87753236 -0.44590566 -0.18505014 -0.35041702 0.47780928 -0.57511294
-0.56906116 -0.10914797 -1.4292496 1.4913198 0.92781436 -0.27773342 -0.67017734 -1.2887065
2.312224 -0.58416784 0.20422234 0.14945318 -2.0581756 -0.034447163 0.5274352 -0.8029677
-1.7470633 -0.07295613 -0.05287717 -0.07422059 -0.09295819 -0.55326533 -1.1891446 -0.6709016
-0.11441734 -0.7894124 -1.078957 -0.08623841 1.1417384 -1.9080586 -0.4473302 2.3492582
-0.159662 -0.90166914 -1.636215 -0.2589341 -1.1302023 -0.15341353 -0.58017695 -0.9047228
-0.23588543 0.21802373 -0.78782374 -1.1098368 -0.56446886 -1.9180282 -0.78158313 -0.10757134
-0.92433715 -1.111574 -0.40988633 -0.85675734 -0.0073507056 -0.12414656 -0.7172575 -0.02642361
-0.72162014 -0.8547448 -0.23971808 -0.35045874 1.5426781 -0.07930174 -0.11271614 -1.4240799
-0.017198129 -0.20095098 1.2344236 -0.08106526 0.09912213 -0.6388426 -1.3078187 -0.796188
-0.9182887 -0.13673402 -1.4322294 -1.2693788 -0.68917435 -0.35533163 -0.005597822 -1.4524573
-0.6825613 -0.27880695 -0.18070817 -1.1968644 -1.1484783 -0.14217512 -0.7067552 -1.4078562
-1.0093874 -0.61519885 -0.5024331 -1.2901357 -0.036690578 -0.073238626 -0.11573773 -0.06462558
0.75892526 -0.91781116 -1.2827482 -0.10739016 0.081469074 0.33710778 -0.35177264 -1.9643342
-0.37108862 -1.346134 -0.77719736 -1.0694208 0.116954714 0.5013622 -0.6578198 -0.4095226
1.6659279 -0.61259484 -0.034308095 -0.4791924 0.41061094 -0.39724424 -0.60334504 -0.117261685
1.1610674 -0.591037 -0.83330727 -0.91449016 -0.761619 -0.8843284 -1.093683 -0.4354555
2.190371 -0.40203586 -0.0910593 -0.66550744 -0.25741044 0.27105916 -0.08325756 -1.0908548
-0.77362204 -1.1481527 -0.18756865 0.2427 -0.080543384 -0.51648545 -0.18153808 0.33554602
1.6434678 -0.49772203 -0.8483682 -1.8636088 -1.2067955 -0.40068364 -0.8194128 -0.08748337
-0.9318616 -0.82546115 -0.30698097 -0.49875164 -0.2273834 1.825354 -0.48581752 -0.037777126

l3.weight f4 [6, 300]
00000000: 0885 573d 54f1 50bc ae81 a9bf 12ad 3ebf
00000010: 60df 05bf 98f1 14bd 47dc 3fbd b1ed 6b3e
00000020: f4b4 523f 2fe8 0dc0 d5a5 223d e820 7cbe
00000030: 2308 7e3f bb73 7cbf 1378 4bbf 3391 4ebe
00000040: 9c23 333d 9b33 613d e7a6 423e 21c6 483e
00000050: c3fa 19bf 9703 29bf 76ca cebe 953e b93f
00000060: 7417 0c3f 7b02 f1bc 4caa 97bf f76f 45bf
00000070: e11c b8bf a3eb 82bf 9786 5abd 84d1 14bd
00000080: 6789 8cbf e319 fdbe c542 cc3c 08c0 34c0
00000090: 2971 043f b997 46bf e4a9 edbe 077b 62bd
000000a0: c515 a3be 2915 dc3e a298 0f3f 2d3e e5be
000000b0: c939 813e c7a4 22bf 9a36 1abc 4615 393d
000000c0: b8a7 3c3f 494a c6be 8137 86bd 44b7 403c
000000d0: 385b 15bd 943b 0b40 f3c7 5dbd ec98 bb3c
000000e0: 7c96 cb3e e9c2 03bc 5bfc df3d 9ffd 213e
000000f0: 850a 0a3e 2fea 473e d7c3 0cbe 50f0 843f
00000100: dc75 fabf 33d7 62be 7c0c a53e e46f 2c3d
00000110: 2930 27be e2ac d0bd 1c61 7abf fb83 83be
00000120: e3e6 77bf 3d42 e43d 77ca 20bd f954 523f
00000130: f345 46bf f9b6 d8bd b47d 4dbc 038d d2bf
00000140: 8459 aabd 92bc 3bbf 3fad f63c 847a 883d
00000150: 01a0 d0bf e5af b23f fb52 b4b9 4fe1 ad38
00000160: a353 893f 19c4 d13d 635a c6bd 3eb0 22bf
00000170: 9116 d4bf 3d41 753e 9847 a340 8660 bebe
00000180: 66c5 d7bc bcce 8ebd c3b2 813f 1ea6 e4bf
00000190: 044e 933e 6bb5 693f 90e9 0ebf 5898 923f
000001a0: bf7e 16bf 327b 083e 20e1 ef3e 7dc2 40c0
000001b0: 3740 a23f 0036 59be 9a99 ab3d a14b 203f
000001c0: d045 c2bc 4392 9ebe f3c2 f6bd 755c 03bd
000001d0: 6ee2 7ebb 5d42 6abf 00bf 44bf 3f9e f7bd
000001e0: 7c28 c1bc b040 17be af2c aa3f 17f8 22bc
000001f0: 2bbc 51be 19d7 913f c3b5 023e e1a2 e4bb
00000200: b360 d43e d511 293e 72df 3040 3ef1 70bd
00000210: ede4 db3e c17f 313d 0b03 433d 66ff 0d3c
00000220: 19e1 b0bf 064b 1c3d 0a06 d4be dd55 c939
00000230: c2f4 4abe 4a60 803f a1c3 e7be 8b87 2e3c
00000240: cdec 00c0 ddd7 cabf d556 adbf 61f9 db3e
00000250: 54f3 60bd 78ba febc bc70 72be 7029 84bc
00000260: b2e8 983f 9a8b 3bbf 7e7a 8ebe cea9 19bf
00000270: 056d 903b 119d 923e caa7 813d 38e8 933f
00000280: 9a29 08bd 45b1 f93e 3d77 f7bd 1b6e 5b3d
00000290: 4a58 7fbf 3605 bebd a2c7 46bf 1d46 bdbe
000002a0: d298 4dbf 2e0d fcbe 7064 b43f 22af 743f
000002b0: d98c fabe 1f45 153f 2d7d 56be 706f f1bd
000002c0: e999 bebe 90c8 8a3f 3bf6 393f b9c5 be3e
000002d0: 0305 953e 9cd2 90bd c836 743e 5b40 8a3f
000002e0: 17f7 08bf 239c 88bf 319d d7bc cc05 0ebf
000002f0: 4da4 833f aa86 123d 868e 2d3c ee1d 373c
00000300: 689e f33d 1243 223f 5203 9dbf cef4 e4bc
00000310: 0d70 fb3d 3afe 6dbf dcae 6b3d a30c fe3e
00000320: ca3a 3abf 7244 b53f 7695 edbd 1810 6ebf
00000330: 7a8b 8b3f ba33 843e a2be 5d3f f134 cb3e
00000340: 0c9b 58bc 687e 47bf 200d 713e 3264 48bf
00000350: 1f75 b6bd 1473 503b 4b00 f83e fe2d 6ebc
00000360: d882 0d3e 7d55 5f3e 02e3 4bbf 28b2 cfbe
00000370: ab14 373f 94ec 69bf c061 503f f0ab ef3e
00000380: 3d4a 07be 6698 41bf dcc1 ecbd bd67 833c
00000390: 0e9c 67bd b058 11c0 b12c 08be aa4b 2a3f
000003a0: 995d edbe 6cf0 3a40 c864 c7be 274d 43bc
000003b0: 7f9d 88bd 8643 52be 7fbd 4b3e 0e0e 173c
000003c0: b93e 7c3e 5553 60be 162d 0dbf 6a6f df3f
000003d0: 9ed8 923e d5dd bf3e 99f4 18bf 39fa 7a3c
000003e0: 60ab a33e a925 dc3e 1eda c33f 7bdd 40be
000003f0: 59ad 043f 22b3 073e 2c22 173e dae2 503d
0.052617103 -0.01275285 -1.32427 -0.74482834 -0.5229397 -0.036363214 -0.046840932 0.23039891
0.8230736 -2.2172964 0.03970893 -0.24621928 0.99231166 -0.9861409 -0.79480094 -0.20172577
0.04373513 0.054980855 0.1900898 0.1960683 -0.60148257 -0.660211 -0.4038884 1.4472224
0.54723287 -0.029420128 -1.1848845 -0.7712397 -1.4383813 -1.0228161 -0.05335101 -0.036332622
-1.0979432 -0.49433812 0.024934182 -2.8242207 0.5173517 -0.7757526 -0.4641868 -0.05529311
-0.31852546 0.42984894 0.56092274 -0.44774 0.252394 -0.6353268 -0.009412432 0.045186304
0.7369342 -0.3872855 -0.06553555 0.011762444 -0.036463946 2.1755114 -0.054145765 0.022900067
0.39763248 -0.008042076 0.10936805 0.15819405 0.13480575 0.19522928 -0.13746582 1.0385838
-1.9567218 -0.22152404 0.32236087 0.042098895 -0.16326965 -0.10189225 -0.9780443 -0.2568663
-0.9683668 0.111454464 -0.039255586 0.8216091 -0.77450484 -0.10581774 -0.012542177 -1.6449283
-0.08317855 -0.7333461 0.030111907 0.06663993 -1.6298829 1.3959929 -0.000343941 8.29125e-05
1.0728649 0.10242481 -0.09685209 -0.63550174 -1.6569387 0.23950668 5.1024895 -0.37183017
-0.026339244 -0.06973025 1.0132679 -1.7863195 0.2877046 0.91292447 -0.5582514 1.1452742
-0.5878715 0.13328245 0.46851444 -3.0118706 1.2675847 -0.21212006 0.083789065 0.626154
-0.02371493 -0.30970964 -0.12048902 -0.032070596 -0.0038892287 -0.9150751 -0.7685394 -0.1209073
-0.023578875 -0.1477077 1.3294886 -0.009946845 -0.20481937 1.1393768 0.12764649 -0.0069774245
0.41480026 0.16510709 2.763638 -0.058823816 0.42948094 0.043334726 0.047610324 0.008666849
-1.3818694 0.038157485 -0.41410857 0.0003840168 -0.1981993 1.0029385 -0.4526644 0.010652433
-2.0144532 -1.5847126 -1.3542124 0.42963699 -0.054919556 -0.031094775 -0.23675817 -0.01613304
1.1946013 -0.7325989 -0.2782783 -0.60024726 0.0044075274 0.28635457 0.06330831 1.1555243
-0.0332428 0.48768058 -0.1208329 0.0535718 -0.99744093 -0.09278338 -0.77648365 -0.36967555
-0.8031131 -0.49228805 1.4093151 0.9557973 -0.48935583 0.58308595 -0.20946188 -0.11788833
-0.372268 1.0842457 0.7264134 0.37260225 0.29105386 -0.070714206 0.23849022 1.080089
-0.5350203 -1.0672649 -0.026320072 -0.55477595 1.0284516 0.035772957 0.010593062 0.011176569
0.11895448 0.6338359 -1.2266638 -0.027948763 0.12277231 -0.92966044 0.057539806 0.49619016
-0.72745955 1.4161513 -0.11600773 -0.9299331 1.090194 0.25820714 0.8661901 0.3968883
-0.01322056 -0.77927256 0.23540163 -0.78277886 -0.08909058 0.0031806873 0.48437724 -0.014537333
0.13819444 0.21809955 -0.7964326 -0.4056561 0.7151591 -0.91376615 0.81399155 0.46810865
-0.13211913 -0.75623167 -0.11560413 0.016040677 -0.05654531 -2.271038 -0.13298298 0.66521704
-0.46360472 2.9209242 -0.38944077 -0.01192025 -0.06670665 -0.2053357 0.19896506 0.0092196595
0.24633302 -0.21906789 -0.5514692 1.7455876 0.2868089 0.37473932 -0.59748226 0.015318447
0.31966686 0.42997482 1.5300939 -0.18834488 0.5182701 0.13251927 0.1475913 0.050997593

l3.bias f4 [6]
00000000: d769 9cbe 76d0 d33e b515 473f 3561 7ebe
00000010: 5935 313e d076 a23d
-0.305495 0.4136998 0.777675 -0.24841769 0.17305507 0.07932818
