TD3_torch/cheetah_actor.pth (torch_old, 532666 bytes, 6 tensors)

l1.weight f4 [400, 26]
0	0x3e2dbec4	0.16967303
1	0xbdc95855	-0.09831301
2	0xbeaa0006	-0.33203143
3	0x3edcad65	0.4310104
4	0xbd0378a0	-0.03209746
5	0xbef6f5b2	-0.48234326
6	0xbe199ef6	-0.15002045
7	0x3e52b7c6	0.20577917
8	0xbf92f371	-1.1480542
9	0xbf8c5587	-1.0963601
10	0xbe06aef3	-0.13152675
11	0x3dcbe0af	0.09954964
12	0xbf0286fe	-0.5098723
13	0x3e4542ad	0.19263716
14	0xbed7f07f	-0.4217567
15	0x3f08640c	0.5327766
16	0x3f715874	0.94275594
17	0xbdd8913c	-0.10574576
18	0x3e894bed	0.2681574
19	0x3e21ebe2	0.15812638
20	0xbd10e8ff	-0.035378452
21	0xbe338a64	-0.1753326
22	0x3e1717ad	0.14755125
23	0x3caef470	0.021356791
24	0xbd5525c4	-0.05203797
25	0x3d2242fc	0.039614663
26	0x3ed06e26	0.40709037
27	0xbdc7a474	-0.09748164
28	0xbee6e077	-0.45093128
29	0xbcb6c506	-0.022310745
30	0xbdaceebe	-0.08443974
31	0x3d643876	0.055717908
32	0xbd5c9b40	-0.053858995
33	0xbdd1e6f5	-0.1024913
34	0xbeea65d8	-0.45780826
35	0xbe363635	-0.17794116
36	0x3f0727f6	0.5279535
37	0x3ed917e8	0.42401052
38	0x3ecde388	0.40212655
39	0xbb761dd0	-0.003755439
40	0xbf0a1500	-0.53938293
41	0x3f78052d	0.968829
42	0x3e5e82de	0.2172961
43	0x3d8f23b8	0.06989235
44	0xbebf3d3e	-0.37351412
45	0x3cf4d80c	0.029888175
46	0xbf4a3472	-0.78986275
47	0xbd1308d8	-0.035897106
48	0xbe1d3df0	-0.15355659
49	0x3d865ef4	0.065610796
50	0xbc78cd70	-0.015185699
51	0xbe260612	-0.16213253
52	0x3f6ad1db	0.91726464
53	0xbc85eba8	-0.016347721
54	0xbe5704a7	-0.20997868
55	0x3f0af80a	0.5428473
56	0x3db21602	0.08695604
57	0x3f7dcfb4	0.99145055
58	0xbe000966	-0.12503585
59	0x3fa3bf21	1.2792703
60	0xbdd44714	-0.103651196
61	0x3f399430	0.7249174
62	0xbd44c1e1	-0.04803646
63	0xbf17dbbf	-0.5931968
64	0xbf2228fa	-0.63343775
65	0xbf265007	-0.6496586
66	0xbe6cf182	-0.23139003
67	0x3f3294f6	0.69758546
68	0xbf516273	-0.81790847
69	0xbdd635a2	-0.104594484
70	0xbaf83e53	-0.0018939473
71	0xbbad8075	-0.0052948543
72	0x3eed43a1	0.4634066
73	0x3d415048	0.047195703
74	0xbbe83e20	-0.007087484
75	0xbe368ea9	-0.17827858
76	0x3deff89a	0.11717339
77	0x3e3a1dfb	0.18175499
78	0x3dd92171	0.106020816
79	0x3e3c6785	0.18398865
80	0xbf09b021	-0.53784376
81	0xbf2f461e	-0.68466365
82	0xbe300274	-0.17188436
83	0x3e620ea9	0.22075905
84	0x3e3a8ac1	0.18216993
85	0x3e77b51f	0.24190186
86	0x3e0267e7	0.12734948
87	0xbf3b0cf2	-0.7306663
88	0x3e405611	0.18782832
89	0xbe685702	-0.22689441
90	0x3ea32691	0.3186536
91	0x3e88121a	0.2657631
92	0x3deced03	0.11568644
93	0xbda6e6d2	-0.08149494
94	0xbdeb5f74	-0.114928156
95	0x3cc8057f	0.024416683
96	0x3e339819	0.1753849
97	0x3f25c4c0	0.6475334
98	0x3e0698aa	0.13144174
99	0xbc107c30	-0.008818671
100	0xbba37c80	-0.004989207
101	0x3e4175e9	0.18892635
102	0x3e4325a1	0.19057323
103	0xbddf1305	-0.108922996
104	0xbec8ffea	-0.39257747
105	0xbc9baf40	-0.019004464
106	0xbe865cdd	-0.26242724
107	0xbe969185	-0.29407898
108	0xbd47ecfc	-0.04880999
109	0x3f2f5845	0.68494064
110	0xbc5d8730	-0.013521001
111	0xbf489fe3	-0.7836897
112	0x3dca1fd5	0.09869353
113	0xbdc462bc	-0.095891446
114	0x3f567123	0.8376638
115	0xbf34cb4e	-0.7062272
116	0x3ee16452	0.4402185
117	0xbd856e54	-0.06515184
118	0xbe9bc953	-0.30427036
119	0xbf3b9020	-0.7326679
120	0x3e45c03d	0.19311614
121	0x3acadd23	0.0015477281
122	0xbf9157d8	-1.1354933
123	0x3e5a3677	0.21309839
124	0x3c0dd122	0.008655818
125	0x3ca28420	0.019838393
126	0x3c05ae90	0.008159295
127	0xbdfdf6e1	-0.12400604
128	0xbe0ff4ae	-0.14058182
129	0x3dd93672	0.10606088
130	0x3f907848	1.1286707
131	0x3e0c76d7	0.13717209
132	0xbd9fe6ea	-0.07807715
133	0x3e406bd1	0.18791129
134	0xbe102995	-0.14078362
135	0xbf063d71	-0.524375
136	0x3cac5090	0.021034509
137	0x3dfd5712	0.12370123
138	0xbf0fa39e	-0.56109035
139	0x3bf628dc	0.007512195
140	0xbdd9d02f	-0.10635411
141	0x3e07ab1d	0.13248868
142	0xbe861b4b	-0.26192698
143	0x3ec9f2ce	0.39443058
144	0xbec84ede	-0.3912267
145	0x3e8c53c5	0.2740766
146	0x3f64f41a	0.8943497
147	0x3e4ebc66	0.20189056
148	0xbeeee039	-0.46655443
149	0xbed334ae	-0.4125113
150	0x3f0a6adc	0.54069304
151	0xbd84362e	-0.064556465
152	0xbe125b6b	-0.14292686
153	0x3d3f18b6	0.046654426
154	0x3e014501	0.12623979
155	0xbe4028b9	-0.18765534
156	0xbed8764b	-0.4227775
157	0x3e2cddcf	0.16881488
158	0xbe87b5a2	-0.26505762
159	0x3e97ae1e	0.29625028
160	0x3df1cb42	0.118063465
161	0xbf548b56	-0.8302511
162	0x3e2f03fb	0.17091362
163	0xbe6d277a	-0.2315959
164	0x3f18e185	0.59719115
165	0xbd5d368c	-0.054007098
166	0x3f181e9a	0.59421694
167	0x3f003d55	0.50093585
168	0x3ed07006	0.40710467
169	0xbe806ba3	-0.2508212
170	0x3ec44e1e	0.3834085
171	0x3e740d0b	0.238331
172	0xbe99c2b1	-0.3003135
173	0xbf028c33	-0.5099518
174	0x3e8fd10f	0.28089187
175	0xbe464a91	-0.19364382
176	0xbf18b315	-0.5964826
177	0xbdff0c10	-0.124534726
178	0x3e223341	0.15839864
179	0xbe1149f2	-0.14188364
180	0xbe372342	-0.17884544
181	0x3cf653c8	0.030069247
182	0xbd4b052f	-0.04956549
183	0xbe2acafa	-0.16678992
184	0xbeb6eb0c	-0.35726202
185	0xbd009559	-0.03139243
186	0x3cbbeb28	0.02293928
187	0x3e25cb6e	0.16190884
188	0xbd2b3eb4	-0.041807845
189	0x3f967560	1.175457
190	0xbeb153f1	-0.34634355
191	0x3d314ec4	0.043288007
192	0xbec80d5b	-0.3907269
193	0xbea436fb	-0.32073197
194	0x3e953d24	0.2914821
195	0xbeab6437	-0.33474895
196	0x3da2beb7	0.07946532
197	0xbf508340	-0.8145027
198	0xbe063510	-0.13106179
199	0x3ee58dc2	0.44834715
200	0xbfed6f5e	-1.8549612
201	0xbe5555a7	-0.20833455
202	0x3e431807	0.19052134
203	0x3dff31ea	0.12460692
204	0xbe06836d	-0.13136072
205	0xbdd95e33	-0.1061367
206	0x3dd7f496	0.10544698
207	0x3dd735a6	0.105082795
208	0x3f32418f	0.69631284
209	0x3dc1eda2	0.09469153
210	0x3d78f914	0.060784414
211	0x3e63e208	0.22254193
212	0x3d61c5cc	0.055120274
213	0x3e7ab78e	0.24484083
214	0x3da959ee	0.08269106
215	0xbd8993bf	-0.067176335
216	0xbf10277c	-0.5631025
217	0x3e72d5b8	0.2371434
218	0x3e8204ee	0.25394386
219	0x3f6a0f66	0.91429746
220	0xbe7fdee1	-0.24987365
221	0x3f71bcf2	0.9442893
222	0xbed44fbb	-0.4146708
223	0x3e939647	0.2882559
224	0x3f0db946	0.5536083
225	0xbf24abe5	-0.6432479
226	0x3e3da08a	0.18518272
227	0xbea777ef	-0.3270869
228	0xbd6923af	-0.056918796
229	0xbe1650d8	-0.14679277
230	0xbcb8e220	-0.022568762
231	0xbf182419	-0.5943008
232	0xbe19de80	-0.15026283
233	0x3e177ed5	0.14794476
234	0x3eddc658	0.43315387
235	0x3e2b9fab	0.16760127
236	0xbe0ba6c9	-0.13637842
237	0xbd8470c1	-0.064668186
238	0x3dc8020e	0.09766017
239	0x3e6eb9d1	0.23313071
240	0x3e377323	0.17915015
241	0xbffcc258	-1.9746809
242	0x3fa39559	1.2779952
243	0x3f7c359c	0.985193
244	0x3d4a7c9a	0.049435236
245	0x3d8739c0	0.06602812
246	0x3f19e307	0.6011204
247	0xbce175d3	-0.027522003
248	0xbe5b3e1c	-0.21410412
249	0x3a199588	0.0005858769
250	0xbfa90b66	-1.3206604
251	0xbf11dabd	-0.56974393
252	0xbec6587f	-0.38739392
253	0xbf1b78bd	-0.60731107
254	0x3d05e7cf	0.032691773
255	0x3c85e628	0.016345099

l1.bias f4 [400]
0	0xbf08f1ea	-0.5349413
1	0xbf12c27d	-0.57328016
2	0xbe9ebc14	-0.31002867
3	0xbe9be51f	-0.30448243
4	0xbe9c3d21	-0.30515388
5	0xbd1f8b12	-0.038950987
6	0x3c8c92da	0.017159868
7	0xbec7ee30	-0.3904891
8	0x3e5b4c3f	0.21415804
9	0xbe23ca6e	-0.1599519
10	0xbeeb7bd6	-0.45992917
11	0xbeb938f2	-0.36176258
12	0xbe51b871	-0.20480515
13	0x3e79bfb1	0.2438953
14	0xbd87ce68	-0.06631166
15	0xbe9e8513	-0.30960903
16	0xbea71183	-0.32630548
17	0xbe135fc5	-0.14392002
18	0xbec209c6	-0.37898082
19	0xbef0c489	-0.47024944
20	0xbea53a0e	-0.32270855
21	0xbe41dbed	-0.18931551
22	0xbeb618e4	-0.35565865
23	0x3ea170fd	0.31531516
24	0xbf1be067	-0.60889286
25	0x3cb18785	0.021671066
26	0xbdc88da2	-0.09792639
27	0xbf09d980	-0.53847504
28	0xbdf2a0ee	-0.11847101
29	0xbddf4ceb	-0.10903343
30	0xbf0698c5	-0.5257686
31	0xbf23cc2d	-0.6398342
32	0xbe0e3e79	-0.13891019
33	0x3d12178c	0.035666987
34	0xbf2a63c7	-0.665585
35	0xbd8684e9	-0.06568319
36	0xbf0fb542	-0.5613595
37	0xbe991f79	-0.29906824
38	0xbebbe13d	-0.3669528
39	0xbea379f2	-0.31928974
40	0xbeb517b3	-0.35369644
41	0x3e14d01d	0.14532514
42	0xbe5a3e7f	-0.21312903
43	0xbc9d3ce0	-0.019194067
44	0xbf10f242	-0.56619656
45	0xbef0935a	-0.4698742
46	0x3f5bcb5b	0.8585717
47	0xbec4614a	-0.38355476
48	0xbd6ddf5c	-0.05807434
49	0xbe4236b8	-0.18966186
50	0x3e2bd3e4	0.16780049
51	0xbd8e5469	-0.06949694
52	0xbed6d408	-0.41958642
53	0xbf06b420	-0.526186
54	0x3d1d2284	0.038362995
55	0xbdee10fd	-0.11624334
56	0x3e1c789f	0.15280388
57	0xbda2f003	-0.07955935
58	0xbb08dd2d	-0.0020883784
59	0x3c099323	0.0083968965
60	0xbd9b1808	-0.07572943
61	0xbf8282c0	-1.0196152
62	0xbf1d08e9	-0.6134172
63	0x3e3f644d	0.18690605
64	0xbf0bbddb	-0.5458657
65	0x3edf53d5	0.43618646
66	0xbeca9fb4	-0.3957497
67	0xbf18c8ea	-0.5968157
68	0xbea5692a	-0.32306796
69	0xbf06ca11	-0.5265208
70	0xbe267d09	-0.16258635
71	0xbeb649b3	-0.35603103
72	0xbee40590	-0.44535494
73	0xbe8782d2	-0.26466995
74	0x3d463f88	0.048400432
75	0xbf1c7319	-0.61113125
76	0x3dcbb77d	0.09947107
77	0xbdddb85f	-0.108261816
78	0x3ed2b406	0.41152972
79	0x3eb484c1	0.35257533
80	0x3c886057	0.0166475
81	0xbdf50dc2	-0.11965515
82	0x3e0e68dd	0.1390719
83	0xbe06a424	-0.13148552
84	0x3ddce288	0.10785395
85	0xbcc153a9	-0.023599463
86	0xbeb4de67	-0.3532593
87	0xbe9485c0	-0.29008293
88	0x3e96bb83	0.29439935
89	0xbeca33f5	-0.39492765
90	0xbea3e115	-0.3200766
91	0xbf2ebbe6	-0.6825546
92	0xbdee8634	-0.11646691
93	0xbeaabc0f	-0.33346602
94	0xbeedd6ec	-0.46453035
95	0xbe8f1079	-0.27942255
96	0xbee06e75	-0.43834272
97	0xbe9f6e49	-0.31138828
98	0x3e88ddf0	0.26731825
99	0x3f495a31	0.78653246
100	0x3daa0ba9	0.08303005
101	0xbe857120	-0.2606287
102	0xbe95f0a6	-0.29285163
103	0xbe944296	-0.2895705
104	0xbf0bdc11	-0.5463267
105	0x3d983b8b	0.07433232
106	0xbeac344f	-0.33633658
107	0xbeb22a4c	-0.34797895
108	0x3d70ce02	0.058790214
109	0x3e52f295	0.2060035
110	0xbf232b59	-0.6373802
111	0x3df97963	0.12181356
112	0xbd32a95c	-0.043618545
113	0xbd65873e	-0.05603718
114	0xbe9be580	-0.30448532
115	0xbe12affa	-0.14324942
116	0x3e034425	0.12818964
117	0x3cd2c652	0.025729332
118	0xbefa138c	-0.48843038
119	0x3cb3f3d4	0.021966852
120	0xbe58f414	-0.21186858
121	0x3eb7e241	0.35914806
122	0x3d455a76	0.048181973
123	0xbc67216d	-0.01410709
124	0xbe5fd3b4	-0.21858102
125	0xbe6975a5	-0.22798784
126	0x3e8c6cc4	0.27426732
127	0xbede7f93	-0.43456706
128	0xbe96d034	-0.2945572
129	0xbed3f6e4	-0.413993
130	0xbf15e2cc	-0.5854919
131	0xbe928ee5	-0.28624645
132	0xbe585877	-0.21127497
133	0x3db1076b	0.08643993
134	0xbf09b153	-0.537862
135	0xbf15f48b	-0.5857627
136	0xbec3c1e6	-0.3823387
137	0xbec6517c	-0.38734043
138	0xbe991708	-0.29900384
139	0xbf352a1e	-0.7076739
140	0xbf2ec9e5	-0.68276817
141	0xbdb2b9f3	-0.08726873
142	0xbe950873	-0.2910801
143	0xbda02c6c	-0.07820973
144	0xbe9d721f	-0.3075113
145	0x3e297215	0.16547425
146	0x3e505e65	0.20348509
147	0x3d2acf64	0.04170169
148	0xbf054437	-0.5205721
149	0xbf0a12c8	-0.5393491
150	0xbf4bf001	-0.7966309
151	0xbec618f8	-0.38690925
152	0xbec04da3	-0.37559232
153	0x3e1b99a7	0.15195332
154	0xbf06d8a1	-0.526743
155	0x3e808e8a	0.2510875
156	0xbe54ae28	-0.2076956
157	0xbe93ae70	-0.28844023
158	0x3d8d3833	0.06895485
159	0xbf0d130c	-0.5510719
160	0xbd927e8d	-0.07153044
161	0x3d702607	0.058630016
162	0xbf08e7c5	-0.5347865
163	0xbf04770d	-0.5174416
164	0xbe9dd079	-0.30823115
165	0xbf151201	-0.58230597
166	0xbec0f0b6	-0.37683648
167	0x3d9659c8	0.07341343
168	0xbea469eb	-0.3211206
169	0x3b86e878	0.004117068
170	0xbebbc93e	-0.36676973
171	0xbeb06849	-0.34454563
172	0xbef2da3e	-0.4743213
173	0xbea46fb6	-0.3211648
174	0xbec60d4b	-0.38682017
175	0xbeb5b52a	-0.3548978
176	0xbe417058	-0.18890512
177	0xbee6d1be	-0.45081896
178	0xbf5c8b3f	-0.8614997
179	0xbe99fe91	-0.3007703
180	0xbccb2512	-0.02479795
181	0x3b5c5a31	0.0033623094
182	0xbea027e3	-0.3128043
183	0xbd38266d	-0.04495852
184	0x3e16e6b1	0.1473644
185	0xbf0302d1	-0.5117617
186	0xbe0428d9	-0.12906207
187	0xbf17da78	-0.5931773
188	0xbea0ecae	-0.31430572
189	0xbedb43fa	-0.428253
190	0xbf0f865a	-0.5606438
191	0xbe93b80f	-0.28851363
192	0xbed76bef	-0.42074534
193	0x3e303113	0.1720622
194	0xbeb524f4	-0.35379755
195	0x3dd7c82a	0.10536225
196	0x3e331285	0.17487533
197	0xbe4d0f1e	-0.20025298
198	0xbd6f5c99	-0.058437917
199	0xbe62fd2b	-0.22166888
200	0xbebe961b	-0.37223896
201	0xbe858d66	-0.2608444
202	0xbee695cc	-0.4503616
203	0xbec5e0fc	-0.38648212
204	0xbc710867	-0.014711476
205	0x3e21fa0f	0.15818046
206	0xbcb3bc9f	-0.021940527
207	0xbe81fdb9	-0.25388888
208	0xbe7c1a53	-0.24619417
209	0x3c2414c6	0.010014718
210	0xbf22f0f3	-0.6364891
211	0x3f38b375	0.7214883
212	0x3e1322d6	0.14368758
213	0xbef1b532	-0.47208554
214	0xbec5ed92	-0.38657814
215	0x3e7c6fb1	0.24651982
216	0x3c3750a0	0.011188656
217	0xbeac263b	-0.33622918
218	0xbf0c1d0f	-0.5473184
219	0xbedbe5c6	-0.4294874
220	0xbea650d4	-0.32483542
221	0xbe98c54a	-0.2983802
222	0xbbca2a8c	-0.0061696228
223	0xbc0984a3	-0.008393439
224	0xbe5b23f4	-0.21400434
225	0x3d0de661	0.034643535
226	0x3d65ed57	0.056134548
227	0xbe1b1713	-0.15145521
228	0xbf36f65c	-0.71469665
229	0xbeed1333	-0.4630371
230	0xbe95166c	-0.2911867
231	0xbf1b0b11	-0.6056376
232	0xbf1967e9	-0.5992418
233	0xbf3db2e0	-0.74101067
234	0xbf015a1d	-0.50528127
235	0xbe95710a	-0.29187804
236	0xbf5cf7a9	-0.863154
237	0xbe07cc62	-0.1326156
238	0xbf287b1f	-0.6581287
239	0xbd8641ba	-0.06555505
240	0xbe7f3f8b	-0.24926583
241	0xbf01c8ff	-0.5069732
242	0x3e3b804c	0.1831066
243	0xbe37b339	-0.17939462
244	0xbec81018	-0.3907478
245	0xbd224d47	-0.03962448
246	0xbe0a0c8d	-0.1348135
247	0x3e874a95	0.2642409
248	0x3d63451b	0.055485826
249	0xbcb5763a	-0.022151101
250	0xbe868a0a	-0.2627719
251	0x3e18a873	0.14908008
252	0xbec6adad	-0.3880438
253	0xbd9bf665	-0.076153554
254	0xbf00a211	-0.50247294
255	0xbdc7dc18	-0.097587764

l2.weight f4 [300, 400]
0	0xbddecff7	-0.1087951
1	0xbd1cbe05	-0.038267154
2	0x3cf38e0c	0.02973082
3	0xbdad718f	-0.08468925
4	0xbbd79adc	-0.00657974
5	0xbce8b4e9	-0.028406577
6	0xbdb739e7	-0.08946591
7	0x3d4eaa5d	0.05045544
8	0xbd0fe8d4	-0.03513415
9	0x3b04f6c2	0.002028868
10	0xbbfbc867	-0.007683802
11	0xba46dc0d	-0.00075858907
12	0x3be8d9e3	0.0071060522
13	0xbc8a43ea	-0.016878087
14	0xbd7dcafb	-0.061961155
15	0x3d146345	0.036227483
16	0xbc9ab43d	-0.018884772
17	0xbd54610f	-0.051850375
18	0xbd79b7a1	-0.060966138
19	0xbc81d6ef	-0.015849559
20	0x3d126350	0.035739243
21	0x3d0b50c1	0.03401256
22	0xbcfebde5	-0.031096408
23	0x3c0c72bf	0.0085722795
24	0xbcfb7323	-0.03069455
25	0xbdb8e96d	-0.090288974
26	0xbd20ff1b	-0.039305788
27	0x3c14c424	0.009079967
28	0xbce728cf	-0.028217701
29	0xb95737da	-0.00020524804
30	0x3ce8d04b	0.028419634
31	0xbcf43d60	-0.029814422
32	0xbd974cd6	-0.07387702
33	0xbcb1eab8	-0.021718368
34	0xbc8229ba	-0.015889037
35	0xbc4c8904	-0.012483839
36	0xbd0e1b21	-0.03469384
37	0xbcae05ca	-0.021242995
38	0xbd670778	-0.056403607
39	0xbce14cc3	-0.027502423
40	0x3cb61f06	0.02223159
41	0xbce33f8f	-0.027740268
42	0xbdca57f7	-0.09880059
43	0x3cfbc69b	0.03073435
44	0xbdb08a94	-0.08620182
45	0xbd025406	-0.031818412
46	0xbd0d23ee	-0.034458093
47	0xbcbdfefe	-0.023192879
48	0xbd9de961	-0.07710529
49	0x3d170add	0.036875594
50	0x3c9f935e	0.01947945
51	0x3b8a1316	0.004213701
52	0x3c1c18fe	0.009527443
53	0xbd02b147	-0.031907346
54	0xbd22f0d0	-0.039780438
55	0xbcd4673f	-0.025928138
56	0x3c82a840	0.015949368
57	0x3aa66625	0.0012695236
58	0xbbf0cf44	-0.0073489267
59	0x3c3bd1cf	0.0114635965
60	0xbd959627	-0.0730403
61	0x3b1e8e6a	0.0024193772
62	0xbd90a06c	-0.07061848
63	0xbbe1bfbb	-0.006889311
64	0xbd51b584	-0.051198497
65	0xbcf1ef92	-0.029533181
66	0xbcf50278	-0.029908404
67	0xbd2c9098	-0.042130083
68	0xbce325c9	-0.027727978
69	0xbcefa442	-0.029253129
70	0x3c420a0a	0.011843214
71	0xbcea3648	-0.028590336
72	0xbc54fc00	-0.012999535
73	0x3ca539e2	0.020169202
74	0xbd1d3529	-0.038380776
75	0xbdf5fab6	-0.1201071
76	0xbd4af23d	-0.049547423
77	0x3c85277a	0.016254175
78	0x3bc8db10	0.00612963
79	0xbdd33ba1	-0.10314108
80	0xbe047617	-0.12935673
81	0xbc220b3b	-0.009890373
82	0xbd739138	-0.059464663
83	0x3c48d30b	0.012257348
84	0xbcf96c4b	-0.030447146
85	0xbd8457cb	-0.06462058
86	0xbd84558b	-0.064616285
87	0xbd4b303b	-0.049606543
88	0x3b395636	0.0028280145
89	0x3d0510cc	0.032486722
90	0xbd291909	-0.04128364
91	0xbda43226	-0.080173776
92	0xbdf8fc47	-0.12157493
93	0xbd24b0dd	-0.040207732
94	0xbd690868	-0.056892782
95	0xbcca4250	-0.024689823
96	0xbd5fe997	-0.054666128
97	0xbc4c283b	-0.012460764
98	0xbd0ebe86	-0.034849666
99	0xbd929fa8	-0.07159358
100	0xbbecfce2	-0.0072322944
101	0x3d80a3c6	0.06281237
102	0xbba1e76e	-0.0049409186
103	0xbc0d70bf	-0.008632838
104	0xbdb88381	-0.090094574
105	0xbd92636d	-0.0714787
106	0x3d4c2a59	0.049845073
107	0xbd99fb5c	-0.07518646
108	0xbd3685ee	-0.04456132
109	0xbd755a0f	-0.05990034
110	0xbd5d8990	-0.054086268
111	0xbcca9966	-0.02473135
112	0xbdc90649	-0.09815652
113	0xbd047472	-0.032337613
114	0x3b2d5ee8	0.0026454274
115	0xbb919b5a	-0.004443568
116	0xbc8ba319	-0.017045544
117	0xbd4d5bc1	-0.05013633
118	0xbd90d296	-0.07071416
119	0xbcad99d8	-0.021191522
120	0xbd85a477	-0.0652551
121	0xbbd9e034	-0.0066490415
122	0xbd3d826f	-0.04626697
123	0x3c94e538	0.018175706
124	0xbdd8622c	-0.105656
125	0x3c222cc4	0.009898368
126	0x3b4b42e7	0.0031015219
127	0x3d0a9f20	0.03384316
128	0x3d0a318a	0.03373865
129	0xbda9a09c	-0.08282587
130	0xbcd240b6	-0.025665622
131	0xbcff7d6d	-0.031187737
132	0xbd87f236	-0.06637995
133	0x3d5884cb	0.052861016
134	0xbce11c04	-0.02747918
135	0xbce9d663	-0.02854461
136	0xbdc97bf7	-0.098380975
137	0x3c7818f3	0.015142667
138	0xbd0aeaf1	-0.033915464
139	0x3b814498	0.0039449446
140	0xbd0bb4c8	-0.034107953
141	0xbda1077d	-0.078627564
142	0xbd9a3e8b	-0.075314604
143	0x3cea2efd	0.028586859
144	0x3aa32a1e	0.0012448465
145	0xbd4d1637	-0.050070014
146	0xbdaf67ab	-0.08564695
147	0xbc805e7b	-0.015670052
148	0xbdb6a547	-0.08918243
149	0xbd273a52	-0.040827103
150	0x3b745107	0.0037279741
151	0xbb6fa71c	-0.003656811
152	0xbd25b768	-0.040458113
153	0xbd65977e	-0.056052677
154	0xbd7176ba	-0.058951117
155	0xbd1fb44e	-0.03899031
156	0x3bebc174	0.0071946923
157	0xbd47d948	-0.0487912
158	0xbd0e7784	-0.034781948
159	0xbd76f522	-0.06029237
160	0xbda3f588	-0.08005816
161	0xbd24324a	-0.040087022
162	0x39d82bf7	0.00041231487
163	0xbcc4ebc3	-0.024038201
164	0x3c988e95	0.018622676
165	0xbdb09ebb	-0.086240254
166	0xbd2aec71	-0.041729394
167	0x3d10660b	0.035253566
168	0xbb8a9a27	-0.004229802
169	0x3ca0381b	0.019558003
170	0x3d359975	0.0443358
171	0xbd9f459c	-0.07776949
172	0xbbc8d8ca	-0.006129359
173	0x3bae25c1	0.005314559
174	0xbd06682a	-0.032814182
175	0x3cf82310	0.030290157
176	0xbd27e66d	-0.040991236
177	0xbdde1e3d	-0.10845611
178	0xbca30d04	-0.019903667
179	0xbd7391a3	-0.059465062
180	0xbdb049f2	-0.08607854
181	0xbd210913	-0.039315294
182	0xbd13e747	-0.036109235
183	0xbdd2a63e	-0.102856144
184	0xbd8db3a9	-0.06919033
185	0xbbbe483b	-0.0058069504
186	0xbcac44e4	-0.021028943
187	0xbc8a355d	-0.016871149
188	0xbc013312	-0.007885711
189	0xbdd2e461	-0.10297466
190	0xbd18c58b	-0.037297767
191	0xbc70efc2	-0.0147056
192	0xbc9c0854	-0.01904694
193	0xbb82ae8c	-0.0039880928
194	0xbb69757f	-0.0035623012
195	0xbd0cf588	-0.034413844
196	0xbd8bef5a	-0.06832762
197	0x3cfb079e	0.03064328
198	0x3c743841	0.01490599
199	0xbc9c825b	-0.019105127
200	0x3c8c00ff	0.017090319
201	0xbc213def	-0.009841426
202	0xbc973e6a	-0.018462379
203	0xbd8b8200	-0.06811905
204	0x3c5151d8	0.012775861
205	0xbd34edbb	-0.04417203
206	0x3bc3faea	0.005980839
207	0xbd826aaa	-0.06368001
208	0xbd7be2aa	-0.06149546
209	0x3d1c1647	0.038107183
210	0xbcf4c73a	-0.029880155
211	0xbdaa918f	-0.08328544
212	0xbd962f4b	-0.07333239
213	0xbd1da6d0	-0.038489163
214	0x3c061d11	0.008185641
215	0xbde9eea4	-0.1142247
216	0xbc129982	-0.008947732
217	0xbca3f29f	-0.020013152
218	0xbd5a65a6	-0.053319596
219	0x3b8e6993	0.0043460815
220	0xbcd06ee3	-0.0254435
221	0x3c8390ed	0.016060317
222	0xbd0f0ea6	-0.03492608
223	0xbdbdea79	-0.09273238
224	0x3bb6a781	0.0055741672
225	0xbd7ae25c	-0.06125103
226	0xbbe41e57	-0.0069616246
227	0xbc98c9f6	-0.01865099
228	0xbd403a28	-0.046930462
229	0x3c890854	0.016727604
230	0xbd2189ad	-0.03943794
231	0x3d560e5f	0.0522598
232	0xbdc479c1	-0.09593535
233	0xbccb68df	-0.02483028
234	0xbdc13a67	-0.094349675
235	0x3c8c5959	0.017132448
236	0xbd44f347	-0.04808357
237	0xbd046d68	-0.0323309
238	0xbd85b0a7	-0.065278344
239	0x3d3f80c4	0.04675366
240	0xbd969b76	-0.073538706
241	0xbd5bec4c	-0.053692147
242	0x3d65ddc6	0.056119703
243	0xbdac91b1	-0.08426226
244	0xbcc68c23	-0.024236744
245	0xbce03f3f	-0.027373908
246	0xbd06a216	-0.03286942
247	0x3ca08f34	0.019599535
248	0x3c37cfc2	0.011218967
249	0x3ab7976f	0.0014006923
250	0xbab6a980	-0.0013936013
251	0x3c8e8249	0.01739611
252	0xbd83f5ee	-0.06443392
253	0xbc051a2b	-0.008123915
254	0x3cba9cb9	0.02277981
255	0xbe02b68f	-0.12764953

l2.bias f4 [300]
0	0xbd4f344b	-0.05058698
1	0xbf1f47fa	-0.622192
2	0x3d312a97	0.043253507
3	0xbd41e1d3	-0.047334503
4	0xbeee8548	-0.4658606
5	0xbdc6e94f	-0.09712469
6	0xbdc62f66	-0.09677009
7	0xbe9bc5e1	-0.30424407
8	0xbebf870d	-0.37407723
9	0xbcca1a7a	-0.024670828
10	0xbea6f202	-0.32606512
11	0xbf7edfbd	-0.9956015
12	0xbe2b1a22	-0.16709188
13	0xbeeb1731	-0.4591613
14	0xbf28a7c3	-0.65880984
15	0xbf23711f	-0.63844484
16	0xbe8a1ec4	-0.26976597
17	0xbdc2d942	-0.09514095
18	0x3ef4989f	0.4777269
19	0xbd117da4	-0.03552021
20	0xbd3cd44b	-0.046100896
21	0xbdd094f3	-0.1018466
22	0xbd086866	-0.033302687
23	0xbeed1cfd	-0.4631118
24	0xbf1726a9	-0.59043366
25	0xbf1c8f0e	-0.61155784
26	0xbf0f4880	-0.5597
27	0xbf05451c	-0.5205858
28	0xbf268dea	-0.65060294
29	0xbee7d1d3	-0.4527727
30	0xbda4a19e	-0.080386385
31	0xbd681214	-0.056657866
32	0x3f0ae958	0.54262304
33	0x3d6381bf	0.055543657
34	0xbeb51d35	-0.35373846
35	0xbf6b8b71	-0.92009646
36	0xbe498ae9	-0.19681896
37	0x3d22106c	0.039566442
38	0xbea8ea41	-0.32991222
39	0xbd5bfd32	-0.053708263
40	0xbf341b0e	-0.7035378
41	0xbef606a1	-0.48051932
42	0xbf2f129c	-0.6838777
43	0xbf2f1330	-0.6838865
44	0xbf0296ba	-0.5101124
45	0xbee8e0d7	-0.4548404
46	0xbe8eecd5	-0.27915064
47	0xbf0f0fe0	-0.558836
48	0xbef0be73	-0.470203
49	0xbf4477f1	-0.76745516
50	0xbf3ec803	-0.74523944
51	0xbd9259ac	-0.0714601
52	0xbec87dd8	-0.3915851
53	0xbee0af56	-0.4388377
54	0xbdbcd891	-0.09220994
55	0xbd947240	-0.07248354
56	0xbefa0619	-0.48832777
57	0xbe20b542	-0.15694144
58	0xbf9362c8	-1.1514521
59	0x3f00506d	0.5012272
60	0xbf074f8e	-0.52855766
61	0xbe9d7c2f	-0.30758807
62	0xbeae069e	-0.33989424
63	0xbf550fdc	-0.83227324
64	0xbf0d7da0	-0.55269814
65	0xbefe121c	-0.4962319
66	0xbda6b6dd	-0.08140347
67	0xbd2a80d0	-0.04162675
68	0x3dca3c5f	0.09874796
69	0xbe11f215	-0.14252503
70	0xbe0b2cd1	-0.13591315
71	0xbefba328	-0.49147916
72	0x3e65a562	0.2242637
73	0xbf223e3e	-0.63376224
74	0xbdfe8c3f	-0.124290936
75	0xbcd67232	-0.0261775
76	0x3f051607	0.51986736
77	0xbdb7a7f3	-0.08967581
78	0xbd991229	-0.07474167
79	0xbf5250de	-0.82154644
80	0x3ea2ef62	0.3182326
81	0xbec0fd00	-0.37693024
82	0xbda2ea6b	-0.07954868
83	0xbda10ed8	-0.07864159
84	0xbf3b3147	-0.73122066
85	0x3e3af50c	0.1825754
86	0xbd30fe32	-0.04321117
87	0xbd60fd8c	-0.0549293
88	0x3e3ad379	0.18244733
89	0xbea922e4	-0.33034432
90	0xbed335b4	-0.4125191
91	0xbeb63f4a	-0.3559516
92	0x3ad6ea22	0.0016396681
93	0xbea33e2e	-0.31883377
94	0x3efab03c	0.4896258
95	0xbf1b3b82	-0.60637677
96	0xbec2ffa3	-0.3808566
97	0xbd982336	-0.07428591
98	0xbf61046c	-0.8789737
99	0x3e4f7248	0.20258439
100	0xbf4471a4	-0.767359
101	0xbe272538	-0.16322792
102	0xbf0fe60c	-0.562104
103	0xbf6ecb2d	-0.9327877
104	0x3ea34ca8	0.31894422
105	0xbf10478b	-0.56359166
106	0x3e98db17	0.29854652
107	0x3edc3bc5	0.4301435
108	0xbf940c81	-1.1566316
109	0x3e3a10a8	0.18170416
110	0x3ee4c8d5	0.44684473
111	0xbf3d597e	-0.7396468
112	0xbf026233	-0.5093109
113	0x3d40120e	0.04689222
114	0xbf03d8aa	-0.5150248
115	0xbd9800f7	-0.07422059
116	0xbd8afe32	-0.06786765
117	0xbb7ed882	-0.0038886373
118	0xbe54e63b	-0.20790951
119	0xbe68c38e	-0.22730848
120	0xbdea53a3	-0.11441734
121	0xbf4a16ee	-0.7894124
122	0xbf3ca8f0	-0.7369528
123	0xbda42c04	-0.08016208
124	0x3f3cbfa6	0.7372993
125	0xbdeaf214	-0.11471954
126	0xbe3e7e39	-0.18602838
127	0x3e9d44b1	0.3071647
128	0x3dc73f95	0.09728924
129	0xbed95223	-0.42445478
130	0xbf8987ad	-1.074453
131	0xbdcc6b20	-0.0998137
132	0xbf6b9969	-0.9203096
133	0xbed05919	-0.40692976
134	0xbcf6217e	-0.030045267
135	0xbf5a82c7	-0.853558
136	0xbe94d73d	-0.29070464
137	0x3e9c3754	0.30510962
138	0x3ea04096	0.31299275
139	0xbf5b2b13	-0.856126
140	0xbe7db4ac	-0.24775952
141	0x3d08b45c	0.03337513
142	0xbec1fe57	-0.37889358
143	0xbd9b44dc	-0.07581493
144	0xbeeeade2	-0.46617037
145	0xbe5673d3	-0.20942621
146	0xbed21f3e	-0.4103946
147	0xbf182cd0	-0.5944338
148	0x3c42befa	0.011886353
149	0xbdbd9c75	-0.092583574
150	0xbed0465a	-0.40678674
151	0xbf196dbe	-0.5993308
152	0xbf073576	-0.5281595
153	0xbf35d4b4	-0.71027684
154	0xbe90d520	-0.282876
155	0xbeb90a89	-0.3614085
156	0xbe578aac	-0.21048993
157	0xbd42be36	-0.04754468
158	0xbd9e2bd3	-0.077232026
159	0xbf4e85a9	-0.806727
160	0xbc8ce317	-0.017198129
161	0x3e8f8b8d	0.28036156
162	0xbf2a4119	-0.6650558
163	0xbda6058b	-0.08106526
164	0x3b34c626	0.0027583926
165	0x3c808c10	0.015691787
166	0xbf8e79fe	-1.1130979
167	0xbea4ca34	-0.3218552
168	0xbde7d365	-0.11319617
169	0xbf18ab0c	-0.59635997
170	0xbf8b329c	-1.087482
171	0xbf35433c	-0.70805717
172	0xbf147e8f	-0.58005613
173	0xbeb5ee07	-0.35533163
174	0xbe32bb9c	-0.1745438
175	0xbec37510	-0.3817525
176	0xbf21e5b9	-0.63241154
177	0xbe7e3c31	-0.24827649
178	0xbe390b90	-0.18070817
179	0xbb718ba2	-0.003685691
180	0xbd99be5b	-0.075070105
181	0xbecd532f	-0.40102527
182	0x3d15936f	0.036517557
183	0xbf1a046d	-0.60163003
184	0xbe7f8a0c	-0.24955004
185	0xbee44acb	-0.44588313
186	0xbef0f6ea	-0.4706338
187	0xbf24047d	-0.6406935
188	0x3e1d7f14	0.15380508
189	0xbd95fe22	-0.073238626
190	0xbded07e7	-0.11573773
191	0xbd845a6b	-0.06462558
192	0x3e1e9d41	0.15489675
193	0xbf3deaed	-0.74186593
194	0xbe10afd1	-0.14129569
195	0xbd9b0680	-0.07569599
196	0x3da6d942	0.081469074
197	0xbdc2064c	-0.09473857
198	0xbea30eaa	-0.31847125
199	0xbf411a64	-0.75430894
200	0x3e950969	0.29108742
201	0xbf812962	-1.0090754
202	0xbf2b1ed9	-0.66843945
203	0xbf31cd86	-0.6945423
204	0x3dfeb1f4	0.124362856
205	0x3ec3c393	0.3823515
206	0xbee12778	-0.43975425
207	0xbec69d5e	-0.38791937
208	0x3f08937c	0.53350043
209	0xbc81e51f	-0.015856324
210	0x3e573c11	0.21019007
211	0xbec2c9a5	-0.38044468
212	0x3f30a50f	0.6900186
213	0xbe9a66fb	-0.30156693
214	0xbea86e60	-0.3289671
215	0xbdbe7b9e	-0.09300922
216	0x3f0ceb32	0.5504638
217	0xbf0f304b	-0.55933064
218	0xbf3c04cf	-0.7344484
219	0xbf38334f	-0.7195329
220	0xbf46bfe4	-0.7763655
221	0xbf07134f	-0.5276384
222	0xbf1c2fd9	-0.6101051
223	0x3e716c7e	0.23576543
224	0x3eb0addc	0.34507644
225	0xbe445db4	-0.1917637
226	0xbd72f4ad	-0.059315372
227	0xbe2363d2	-0.15956047
228	0xbe398277	-0.18116175
229	0x3e94bc81	0.29050067
230	0x3e806da1	0.2508364
231	0xbf709bb9	-0.93987614
232	0xbf03e585	-0.51522094
233	0xbf8aab10	-1.0833454
234	0xbe60982c	-0.21933049
235	0xbe6fd1b8	-0.23419845
236	0xbda4f3ee	-0.080543384
237	0xbe9c6dde	-0.30552572
238	0x3c91e541	0.017809512
239	0xbf01a243	-0.50638217
240	0xbea2f006	-0.31823748
241	0xbefed56c	-0.49772203
242	0xbf423b9b	-0.758722
243	0xbf7622be	-0.9614676
244	0xbf0f45ed	-0.55966073
245	0xbecb1e95	-0.3967177
246	0xbf186916	-0.5953535
247	0xbda9d38d	-0.08292303
248	0xbf268e9a	-0.6506134
249	0xbebdcac5	-0.37068763
250	0xbe480f2b	-0.19537036
251	0xbec073fc	-0.3758849
252	0xbe074239	-0.13208856
253	0x3dc596ce	0.09647904
254	0xbed7b126	-0.4212734
255	0xbd105674	-0.035238698

l3.weight f4 [6, 300]
0	0x3d578508	0.052617103
1	0xbc5bafba	-0.013408596
2	0xbc027fe1	-0.007965059
3	0xbed8e511	-0.42362264
4	0xbd8c5cba	-0.06853624
5	0xbd14f198	-0.036363214
6	0xbd3fdc47	-0.046840932
7	0x3cfb137a	0.030648936
8	0xbe271fab	-0.16320674
9	0xbe85c395	-0.2612578
10	0x3d22a5d5	0.03970893
11	0xbe5ad298	-0.21369398
12	0xbe95acf1	-0.29233506
13	0xbf7b72a2	-0.9822179
14	0xbf3aebca	-0.73016036
15	0xbe02d78f	-0.12777542
16	0x3de59745	0.11210493
17	0x3d61339b	0.054980855
18	0x3e0aee13	0.1356738
19	0x3e09ca0e	0.13455984
20	0xbd09ef04	-0.03367521
21	0xbf41f1bf	-0.757595
22	0xbecc4f8a	-0.39904433
23	0xbe002cb6	-0.12517056
24	0x3d7b16b6	0.061300956
25	0x3ef2065f	0.47270486
26	0xbf7c37f9	-0.9852291
27	0xbf049b8e	-0.5179986
28	0xbf4f64c1	-0.81013113
29	0xbfc8bf90	-1.568346
30	0xbd5a8697	-0.05335101
31	0xbda17bce	-0.07884942
32	0xbedd6c00	-0.4324646
33	0xbe9a9b94	-0.30196822
34	0x3ce96e75	0.028495053
35	0xc0331aa6	-2.7985015
36	0x3f62efea	0.8864733
37	0x3e3521a2	0.17688611
38	0xbf848592	-1.0353262
39	0xbc591d90	-0.013251677
40	0x3f4c2c1e	0.7975482
41	0x3dccb72e	0.09995876
42	0x3f3924cf	0.7232179
43	0xbecc21df	-0.39869592
44	0xbe698bab	-0.22807185
45	0xbf22a4c7	-0.6353268
46	0xbcc80b74	-0.024419524
47	0x3c5d5662	0.013509365
48	0x3f47eb0c	0.7809303
49	0xbe927e87	-0.28612158
50	0xbeef7893	-0.46771678
51	0x3c40b744	0.011762444
52	0xbe847733	-0.25872192
53	0x3f323ab2	0.6962081
54	0xbe71a094	-0.23596412
55	0x3cbb98ec	0.022900067
56	0x3f0a63fb	0.5405881
57	0x3e08a9ed	0.13346072
58	0xbf0f7ae8	-0.56046915
59	0x3d8cae68	0.06869203
60	0x3def9a0a	0.116993025
61	0xbe21cf8f	-0.15801834
62	0x3eb20966	0.34772795
63	0x3f88f28b	1.0699018
64	0x3e8dfc18	0.27731395
65	0xbe84b9b2	-0.25922924
66	0x3ed56d54	0.41684973
67	0x3d2c6fe4	0.042098895
68	0xbf84be98	-1.0370665
69	0xbe1add8d	-0.15123577
70	0xbfd2ff94	-1.6484246
71	0xbf4da3eb	-0.80328244
72	0xbce280f8	-0.027649388
73	0xbdbf5f11	-0.09344304
74	0xbd20ca77	-0.039255586
75	0x3e701a48	0.23447526
76	0x3d5b7c86	0.05358555
77	0xbdd8b6f9	-0.10581774
78	0x3b85412f	0.0040666084
79	0xc0041def	-2.064327
80	0xbd815f2c	-0.06316981
81	0x3e524059	0.20532359
82	0x3cf6ad3f	0.030111907
83	0xbe21d4a5	-0.15803774
84	0xbfce5346	-1.6119163
85	0x3f19e3f2	0.6011344
86	0xb9b452fb	-0.000343941
87	0xbd003b15	-0.031306345
88	0x3e3c0015	0.18359406
89	0x3e6ed4e3	0.23323397
90	0xbd20759a	-0.039174654
91	0xbf1eadad	-0.6198376
92	0x3d9b4ce5	0.07583026
93	0x3e75413d	0.23950668
94	0xbd6e0027	-0.058105614
95	0xbeacdb07	-0.33760855
96	0x3e4e3fc4	0.20141512
97	0xbd876b03	-0.06612208
98	0x3e214d5a	0.15752164
99	0x3e1e4b0e	0.15458319
100	0xbec943da	-0.3930958
101	0xbe4be708	-0.1991235
102	0xbf4f2bda	-0.8092629
103	0x3faa7789	1.3317729
104	0xbe080d2d	-0.13286276
105	0x3e087b32	0.13328245
106	0x3e91089c	0.2832688
107	0x3d663b73	0.05620904
108	0x3fb2054a	1.3907864
109	0xbe92da6c	-0.28682268
110	0x3d42ef43	0.04759146
111	0x3f27ea25	0.6559165
112	0x3e999135	0.29993597
113	0xbe45f122	-0.19330266
114	0xbf331eeb	-0.6996905
115	0xbd035c75	-0.032070596
116	0x3ce40406	0.02783395
117	0x3e42183a	0.18954554
118	0xbe5fbcbd	-0.21849342
119	0xbe9b345a	-0.3031338
120	0xbcc1287c	-0.023578875
121	0xbe1740b0	-0.1477077
122	0x3f6e86e1	0.9317456
123	0xbc226487	-0.009911663
124	0xbd8dcfad	-0.06924377
125	0x3ed744b7	0.42044613
126	0x3e6952f1	0.22785546
127	0xbe7a1ee9	-0.24425854
128	0x3f18069c	0.59385085
129	0x3dc4f7ce	0.096175775
130	0x4005f86a	2.093287
131	0xb74fed76	-1.239345e-05
132	0xbe2bf293	-0.16791753
133	0xbeb340f5	-0.35010496
134	0xbd38d5fb	-0.045125943
135	0xbe2ae61a	-0.1668934
136	0xbfad6dcc	-1.3549132
137	0xbd7e0d4e	-0.062024407
138	0x3c7552cc	0.014973354
139	0xbefd670c	-0.4949268
140	0xbe9560e8	-0.29175496
141	0x3e457f23	0.1928678
142	0xbee8e7e5	-0.4548942
143	0xbcab3b27	-0.02090223
144	0xc0311c32	-2.767346
145	0xc0089bbf	-2.134506
146	0x3e3400a7	0.17578374
147	0x3efa9243	0.48939714
148	0xbde96d77	-0.11397832
149	0xbd009f2f	-0.03140181
150	0x3e1afdfe	0.15135953
151	0xbefa6fc0	-0.48913383
152	0x3f1738da	0.59071124
153	0xbf59b1e2	-0.8503705
154	0x3eec1b91	0.46114781
155	0xbf13b482	-0.5769731
156	0xbdd1f9db	-0.10252734
157	0x3e929d11	0.28635457
158	0x3d104ebb	0.035231333
159	0x3fee691a	1.8625824
160	0xbd08299a	-0.0332428
161	0x3dfc5d8c	0.1232253
162	0x3d967fb2	0.07348575
163	0x3d5b6e1b	0.0535718
164	0x3ec7e6de	0.39043325
165	0xbe16f562	-0.14742044
166	0xbf247b91	-0.6425105
167	0xbe53d6c4	-0.20687395
168	0xbd24dc82	-0.040249355
169	0xbf2dd2ab	-0.6789958
170	0x3f218599	0.6309448
171	0x3eb1a4d1	0.34696057
172	0xbf041d7e	-0.516075
173	0x3f15451f	0.58308595
174	0xbcecbc96	-0.028898519
175	0xbdea2934	-0.1143364
176	0xbef35805	-0.4752809
177	0x3f8b3be2	1.087765
178	0x3f39f63b	0.7264134
179	0xbe43ec6a	-0.19133154
180	0x3da371c4	0.079806834
181	0x3ca0bfc5	0.019622693
182	0x3fba3af7	1.4549245
183	0x3f64ffa9	0.89452606
184	0xbe1927ae	-0.14956543
185	0xbf80d2df	-1.0064353
186	0xbcb15ddb	-0.0216512
187	0xbf5e21fd	-0.8677061
188	0x3f770aa5	0.9650062
189	0x3d1286aa	0.035772957
190	0x3c2d8e86	0.010593062
191	0x3c371dee	0.011176569
192	0x3d617a00	0.05504799
193	0x3f4e4e2a	0.8058802
194	0xbf9a22cc	-1.2041869
195	0x3b7085d3	0.003670086
196	0x3dfb700d	0.12277231
197	0xbecc690c	-0.39923894
198	0xbc635c4e	-0.013876988
199	0xbeb3bcf2	-0.3510509
200	0xbdf83294	-0.12119022
201	0xbe82add1	-0.25523236
202	0xbde44330	-0.111456275
203	0xbe9db6a1	-0.30803397
204	0x3e1fbcd3	0.15599374
205	0x3d89dd0a	0.06731613
206	0x3faa1b18	1.3289518
207	0x3eed2e66	0.46324462
208	0xbece6d09	-0.40317562
209	0xbe32c0e0	-0.17456388
210	0x3e9e9a46	0.30977076
211	0xbf5e53dd	-0.86846715
212	0x3c90b51b	0.017664483
213	0xbe10e93f	-0.14151476
214	0xbe9d3afc	-0.30709064
215	0x3c865957	0.016400022
216	0x3d1658b9	0.036705706
217	0x3e7f5e86	0.24938402
218	0xbf638c38	-0.8888583
219	0xbe823f0f	-0.25438735
220	0x3f271e5d	0.65280706
221	0xbf65e686	-0.89804876
222	0x3ea9eb18	0.33187175
223	0xbe89c64c	-0.269091
224	0xbf262147	-0.6489453
225	0xbf055b85	-0.5209277
226	0xbdac51dd	-0.08414052
227	0xbcfdd31d	-0.030984456
228	0xbec0ab49	-0.3763068
229	0xbcd6e3a0	-0.026231587
230	0x3ea0da1b	0.314164
231	0x3f2a4baa	0.66521704
232	0xbec7b644	-0.39006245
233	0x403ed7c8	2.9819202
234	0xbe96a32c	-0.29421365
235	0xbf4d3eda	-0.8017403
236	0xbd889d7f	-0.06670665
237	0xbde4a2e7	-0.11163884
238	0x3e9dc760	0.30816174
239	0xc0099375	-2.149625
240	0xbe4befe0	-0.19915724
241	0xbe605355	-0.21906789
242	0xbec17d3d	-0.37790862
243	0xbd3f25b2	-0.04666681
244	0x3e3ce7bc	0.18447775
245	0x3ec2b330	0.38027334
246	0xbea43043	-0.3206807
247	0x3d311d7d	0.043241013
248	0x3f116304	0.5679171
249	0x3d83c545	0.064341106
250	0x3fc566ee	1.5422037
251	0xbd87a763	-0.06623723
252	0x3f04757f	0.51741785
253	0xbe55eb9d	-0.2089066
254	0x3dcab3fc	0.098976105
255	0x3d0b4d6e	0.03400939

l3.bias f4 [6]
0	0x3eb2d7a9	0.3493016
1	0xbc47725d	-0.012173262
2	0xbe1a2975	-0.15054877
3	0xbe846a7f	-0.258625
4	0x3cd0ad7b	0.025473347
5	0x3eba9e18	0.3644874
