DDPG/cheetah_critic.pth (torch_old, 536246 bytes, 5 tensors)

l1.weight f4 [400, 32]
000000 ae d2 66 c0 8c 1a 19 bd e1 c7 ad bf 3c 7e 79 3f
       -3.6066089 -0.037378833 -1.3576623 0.97458243
000010 a4 92 4d 3d f5 db af 40 b0 e8 4d bc 19 27 2f 3f
       0.050188676 5.4956 -0.012567684 0.68419033
000020 35 28 f2 3f a8 ef ee 3d d0 2a 0b c0 4b 1d a1 bf
       1.891852 0.116668046 -2.174488 -1.2587065
000030 c7 f4 ac bf 02 17 aa bf be f5 a0 3e 7d 3d 32 c0
       -1.35122 -1.3288271 0.31437486 -2.785003
000040 4a 47 1a 40 ba 96 8b 40 e5 68 9b 3f 0f 70 29 c0
       2.4106011 4.3621492 1.2141386 -2.6474645
000050 28 b4 4b c0 c2 f5 b2 bd 4f 90 15 3e 36 c4 4b bf
       -3.1828709 -0.08738281 0.1460583 -0.7959627
000060 78 1e f5 bd 5e f3 b8 3d 65 2f 8f bd 2b ed 3f 3f
       -0.11968702 0.090307936 -0.06991462 0.74971265
000070 b3 4d b1 3f a5 80 06 bf 63 c6 3e 3c 08 81 02 3e
       1.3851837 -0.52540046 0.011643979 0.12744534
000080 4d f5 0e 41 c0 42 43 bd 80 a2 6b 3f a9 b5 75 bf
       8.934888 -0.04767108 0.9204483 -0.95980316
000090 36 df ac 3d f1 a5 8a c0 a0 18 d7 3c b1 0b 92 40
       0.084410116 -4.3327565 0.02625686 4.563927
0000a0 53 8a 93 3f 84 f4 95 bf 08 64 75 3f 43 db 61 bf
       1.1526588 -1.1715245 0.9585576 -0.8822519
0000b0 e0 f1 f0 be bd 69 c6 3f 7c c9 90 bf f1 16 8a 40
       -0.47059536 1.5501019 -1.1311488 4.3153005
0000c0 c0 cd 1c 3f 75 dc 2e bf 5b 19 2c 3f 1d 34 59 bf
       0.6125145 -0.6830514 0.6722619 -0.84845144
0000d0 93 a3 ab 3e c8 d3 80 3c 58 c4 00 3d a3 94 23 c0
       0.33523235 0.015725985 0.031437248 -2.555947
0000e0 30 6a 0d bc 54 5b ee bd ea 10 22 bf 46 7e 00 3f
       -0.008631274 -0.11638513 -0.6330706 0.5019268
0000f0 4e e2 dd be ae 4c b2 3f 54 8d b2 bf 29 f2 97 3d
       -0.4333672 1.3929651 -1.394938 0.07419235
000100 8e 79 f1 40 17 bc 2d 3e 8f 45 88 3d 4a 2e d6 bf
       7.546088 0.16966282 0.06653892 -1.6732876
000110 b4 64 4d bd 06 ed d5 bc 72 7a ab 3d f8 fc 4a 41
       -0.050144866 -0.026113998 0.08372964 12.68676
000120 0d fb b6 40 94 f0 6c 40 96 b3 29 c0 10 0a 55 c0
       5.718146 3.7021837 -2.651586 -3.3287392
000130 10 b7 0b 3f df 08 b1 3e e6 0e 84 3f 28 33 3b bd
       0.54576206 0.3457708 1.0317047 -0.045703083
000140 d8 90 fb 3e ef aa 54 bf 2d 96 a6 3f 08 62 8e bf
       0.49133945 -0.83073324 1.301458 -1.1123667
000150 6f fb 4f 3e 68 b0 12 bd 29 10 d7 bd df e6 45 bf
       0.20310758 -0.035812765 -0.10501129 -0.77305406
000160 34 39 dc bd b6 d8 e0 bd 46 ba f7 3c e6 dd e4 bd
       -0.10753098 -0.10978834 0.03024019 -0.11175136
000170 a2 69 3e be db b1 95 3e 20 e9 20 3f 36 2d 02 bf
       -0.18594983 0.29237255 0.6285572 -0.50850236
000180 41 31 29 c1 c4 df dd bd d3 11 3e c0 d7 95 1c 3f
       -10.574525 -0.108336955 -2.969838 0.6116614
000190 91 73 1a be 77 1f 9b 40 a0 d0 cc 3b 0f 3b 95 bf
       -0.15083148 4.847591 0.006250456 -1.1658648
0001a0 f5 fc 0d c0 d1 2d 8c 40 13 af c9 bf 66 34 54 3f
       -2.2185643 4.380593 -1.5756553 0.82892454
0001b0 c6 d2 95 c0 1c 6a b4 3e 46 36 b9 3f 07 9d 30 bf
       -4.681979 0.35237205 1.4469688 -0.68989605
0001c0 9d 97 18 40 9a e9 8c bf d4 43 08 c0 33 b3 b4 bf
       2.3842537 -1.100879 -2.12914 -1.4117187
0001d0 a5 bd a1 bf 50 b6 79 bc d4 a5 4c bd 37 df c0 3e
       -1.2636 -0.015241221 -0.049962834 0.376703
0001e0 5a d9 30 be 53 d5 03 3e fd 86 0a bf 18 78 93 bf
       -0.17270413 0.12874345 -0.54112226 -1.1521025
0001f0 2c 3f 59 be d8 3e 3e bf ed 78 61 bf 95 8d 70 bf
       -0.21215504 -0.7431464 -0.88075143 -0.9396604
000200 03 6d 02 41 21 13 14 3e 65 93 9d 3e ac 7a 04 3f
       8.151614 0.14460422 0.30776516 0.5174968
000210 1c 65 0c be a9 1e 10 bf 14 cb e4 bd 91 19 2e bf
       -0.13710445 -0.56296784 -0.111715466 -0.6800776
000220 7c 9d a1 bf 7d 22 30 3f 02 24 9b 3f 28 8b a1 3f
       -1.2626185 0.68802625 1.2120364 1.2620592
000230 1c 16 5e bf e3 b4 87 3d 2d 73 45 bf cc f1 51 3f
       -0.86752486 0.06626298 -0.7712887 0.8200958
000240 58 96 bb 3f d8 89 58 3f 32 ea 0e bf 43 4e f4 3e
       1.4655256 0.8458533 -0.55826104 0.4771596
000250 d2 8e 26 bf 52 3d ac 3d 38 d3 46 3d 98 1c ca bf
       -0.65061677 0.084101334 0.048541278 -1.5789976
000260 ae bf b6 3d a2 d6 b1 3d 32 40 2a be e7 cd 8b bc
       0.08923279 0.08683516 -0.16626051 -0.017065955
000270 e1 39 c6 be ff 8e 1f 3f 6e 30 92 bf b7 ed 70 3e
       -0.38716033 0.6232757 -1.142103 0.23528181
000280 c2 b1 86 41 00 00 8b bc df 05 2d 40 74 e5 e0 3f
       16.836796 -0.016967773 2.7034833 1.7570024
000290 1c 99 82 3d eb a7 11 40 72 ed 7a bd 6b 1e 23 41
       0.063768595 2.275874 -0.0612616 10.194926
0002a0 ae 1a de c0 b6 7d ac c0 29 a7 9b 40 99 08 df 3d
       -6.940757 -5.3903456 4.8641553 0.10890312
0002b0 37 e2 95 3f f8 e4 90 3e 89 d1 02 3e 8f f1 71 bd
       1.170966 0.2829969 0.12775244 -0.05906826
0002c0 dd 34 82 3f 9e 1c 02 bf cd 35 25 3e a3 74 50 bf
       1.0172383 -0.50824916 0.16133805 -0.81427974
0002d0 6b df a1 3e 75 9b 2d 3e f7 86 10 3e 91 00 03 c0
       0.31615767 0.16953833 0.14113985 -2.0469096
0002e0 ad a6 a7 bd ae 37 9c 3d e6 ae 48 bf 80 b8 a0 3e
       -0.08186088 0.076278076 -0.78391874 0.31390762
0002f0 6a 7a b1 bc e9 ff 2e 3f 7c a9 4d bd 4f 6e 58 be
       -0.021664817 0.6835924 -0.05021046 -0.2113583
000300 d7 23 0b be ef 76 25 3e 40 34 5c 3f 51 95 2f 3f
       -0.1358789 0.16158651 0.8601723 0.68587214
000310 c8 4e d0 3c 77 4d 17 c0 80 87 3f bb 04 3d 1f 40
       0.02542819 -2.364103 -0.0029225051 2.488099
000320 f0 ed 2a c0 6e f1 c7 c0 81 e9 ca 3e 0d 85 81 c0
       -2.6707726 -6.2482214 0.39631274 -4.0474916
000330 df 9b 69 3f 0c 6e 47 bf e9 8c 92 3f b9 86 90 40
       0.91253465 -0.77902293 1.1449252 4.5164456
000340 49 2f 24 3d 35 40 1b 40 67 27 b8 be 22 d4 c8 3d
       0.040084157 2.425794 -0.35967562 0.09806086
000350 32 cf 80 be a6 8e e9 bd f4 a8 13 bd 84 df 6b 3f
       -0.25158077 -0.11404161 -0.036049798 0.9213793
000360 6c 1c 30 bd c2 6f 6e bd 03 67 af 3e 5e cb ab bd
       -0.042995855 -0.05821205 0.3425828 -0.083883986
000370 4c 17 ef be e0 f6 a6 3d 2b 7b 26 3f 17 6f f9 be
       -0.46697462 0.081525564 0.6503169 -0.48717567
000380 df f0 5d 41 9e fb ee bd a2 10 11 3f 53 19 f4 3e
       13.871306 -0.11669086 0.56666005 0.4767557
000390 00 a0 30 b9 32 38 39 c0 2d db 22 3e a6 d5 95 bf
       -0.00016844273 -2.894055 0.15903921 -1.1705825
0003a0 7c f9 84 be 07 d5 9d bf 30 1c 09 be c3 75 30 3e
       -0.2597159 -1.2330636 -0.13389659 0.17232423
0003b0 50 15 dc 3d 83 c9 9a bd bb 2e a9 40 26 03 cd bf
       0.107462525 -0.075579666 5.2869544 -1.6016586
0003c0 bd c7 53 40 2b 5e 6f bf 91 15 66 3f cc d2 01 be
       3.309066 -0.93503064 0.8987666 -0.12678069
0003d0 8b 97 8b 3f ee 01 21 be 1e ec 09 be 45 8b 4f 3e
       1.0905622 -0.15723392 -0.13468978 0.20267971
0003e0 00 12 9f bc 47 69 01 3e c0 31 7c 3d 22 f6 32 3e
       -0.019417763 0.12637816 0.061570883 0.17476705
0003f0 68 0d 12 3e 72 89 86 be 54 41 12 be 1a 96 23 be
       0.14262927 -0.26276737 -0.14282733 -0.15975228

l1.bias f4 [400]
000000 b7 44 8d bf 8a 67 67 3f 57 c1 8a 3e cf 8a 4f c0
       -1.1036595 0.90392363 0.27100632 -3.2428472
000010 d1 3d 19 3f d2 35 37 40 c4 61 41 3f 80 f6 33 3f
       0.5985995 2.86266 0.75539804 0.70298004
000020 92 7f ef bd 60 ff 16 c0 77 16 20 3f fd fd cc bf
       -0.11694254 -2.3593369 0.6253428 -1.6015011
000030 88 a5 00 40 ff bf 0e c0 64 30 0e be 57 17 05 bf
       2.0101032 -2.2304685 -0.13885647 -0.5198874
000040 ae 78 7e 3f 63 ea 28 3e a1 bc a7 bf cb d9 63 bf
       0.9940289 0.16495661 -1.310444 -0.890042
000050 07 51 12 be 73 09 ff bf 0a fc 55 bf 41 06 be bf
       -0.14288722 -1.9924759 -0.83587706 -1.4845659
000060 52 e8 34 be bc 8a af bf 38 8b 65 bf cf 5d d1 bf
       -0.17666748 -1.3714213 -0.89665556 -1.6356753
000070 4c f2 97 bf 4a d5 5f bf 54 a0 87 bf 45 84 74 3e
       -1.1870818 -0.8743483 -1.0595803 0.23878582
000080 da c9 c6 bf 9d 14 60 bf b4 9d b8 3e d6 4b 17 bf
       -1.553035 -0.87531453 0.36057818 -0.5910009
000090 e0 62 27 bf d9 f4 10 40 95 5f 79 bf 93 f4 27 3e
       -0.65385246 2.2649443 -0.9741147 0.16401891
0000a0 ed 80 4c bf 56 ec 0c 3e 95 e5 e0 3d 13 4b fe bf
       -0.79884225 0.1376203 0.10981289 -1.9866661
0000b0 7b 50 57 bf 32 9d 56 bf 63 65 1a bd 1d 02 bb bf
       -0.8410718 -0.8383361 -0.037694346 -1.461002
0000c0 25 bb 58 bf 6f 43 c9 bf 53 d6 5b c0 73 54 02 bf
       -0.8466056 -1.5723704 -3.4349563 -0.5091011
0000d0 36 fc 01 40 7a e7 02 c0 a3 f6 11 3e 24 86 54 bf
       2.0310187 -2.0453782 0.1425424 -0.8301718
0000e0 51 2d 03 bf 3e 0f 03 c0 81 41 df 3f a9 8d 02 3d
       -0.5124102 -2.0478053 1.7441865 0.03187338
0000f0 83 f5 7b 3f af cb 47 bf a9 2f ab be d3 49 d5 3f
       0.98421496 -0.7804517 -0.334348 1.6663154
000100 cb c9 a0 be 08 25 31 bf 7e bf 97 3c 3b 04 e9 bf
       -0.31403956 -0.6919713 0.018523928 -1.8204416
000110 13 a4 f1 be 2f d7 cf 3e af 36 30 c0 1e 3c 7a bf
       -0.4719549 0.4059386 -2.7533376 -0.9774798
000120 e0 ce 24 be eb 8a 05 bf a9 38 47 c0 62 e2 b2 3f
       -0.16094542 -0.52165097 -3.1128333 1.3975337
000130 b8 37 0e 3f 97 c1 2d 40 24 be 2f 3f 88 d1 b8 bf
       0.5555377 2.7149408 0.68649507 -1.4438944
000140 bd 91 ae bc da b4 f1 3f 32 a0 2c 40 d9 22 a0 bf
       -0.021309728 1.8883317 2.6972775 -1.2510635
000150 57 7c 9c be 56 c9 45 3c 82 8c 96 3f 5e 06 53 c0
       -0.30563614 0.012071928 1.176163 -3.2972636
000160 3b c0 35 3f 3d 2e c1 3f cb f2 8a bf 5a d9 cb be
       0.70996445 1.5092236 -1.0855345 -0.39814264
000170 c2 c9 8f bf 47 cd d0 bf 83 de d9 bf c0 f1 95 bf
       -1.1233447 -1.6312646 -1.702103 -1.1714401
000180 84 4b 01 bf 43 2c 4c bf a8 72 cf 3e 0c b3 eb 3f
       -0.5050585 -0.7975504 0.40517163 1.8414016
000190 18 ec c5 3f 70 02 0f 40 43 93 c1 bf 10 cc 28 40
       1.5462675 2.2345238 -1.5123066 2.637455
0001a0 7a 0b 8f bf 5a 94 36 40 00 76 90 40 b0 3b 0a c0
       -1.1175377 2.8528047 4.5144043 -2.159893
0001b0 be a8 45 bf 2e be 15 bc fc b3 75 bf 0c b4 38 c0
       -0.77210605 -0.009139581 -0.9597776 -2.8859892
0001c0 38 f3 e6 bf d5 5f 09 3f c0 3a bb 3d 34 a1 3a bf
       -1.8042974 0.53661853 0.09142065 -0.72902226
0001d0 c1 5a ed bf 59 07 32 c0 fe 7a 03 c0 4a 91 eb bf
       -1.8543321 -2.7816985 -2.0543818 -1.8403714
0001e0 d4 51 0e c0 31 c1 80 bf 57 16 44 bf 62 71 ac bf
       -2.2237444 -1.0058957 -0.7659659 -1.3472102
0001f0 05 2a 0c bf 8a 68 77 bf 5a 97 ed 3f 14 2f f4 be
       -0.54751617 -0.9664389 1.8561814 -0.47692168
000200 da d2 fa be 47 04 6d be 4c 31 be be dd 8b f2 be
       -0.48988992 -0.23146163 -0.37146986 -0.47372332
000210 0c 03 f7 bf 5f 31 0c be a1 29 4b bf 89 7e 90 bf
       -1.9297805 -0.13690709 -0.79360396 -1.1288615
000220 c4 06 1e c0 dc 89 8c 3e 65 96 8c 3e 8e 95 94 bf
       -2.469163 0.27448928 0.27458492 -1.160814
000230 07 3f d6 bf 78 f1 fb 3f 14 08 a3 bf 9b df 1b 40
       -1.6737984 1.9683065 -1.273684 2.4355228
000240 2e 03 8e 3f 04 9d 2e 40 12 69 96 3f 68 ce 06 bf
       1.109472 2.7283335 1.1750815 -0.526587
000250 7b 82 0a be 76 21 02 bf 6a 34 26 bf d1 3c 92 bf
       -0.13526337 -0.5083231 -0.6492373 -1.142481
000260 9d 1b 06 3f 45 08 fd bd a2 35 3c c0 da 4f 15 bf
       0.52385885 -0.12355093 -2.9407735 -0.5832497
000270 c1 28 88 40 35 1e c5 bf 5f b9 eb bf 78 56 e9 bf
       4.254975 -1.5399843 -1.8415946 -1.8229513
000280 a6 24 84 bf 82 26 41 c0 55 fa e1 bf 5b 56 83 3e
       -1.0323684 -3.0179753 -1.765452 0.25651821
000290 af 4b b4 bf cc 46 3d 3f 47 3d 24 bf c6 14 83 bf
       -1.4085597 0.7393615 -0.64156 -1.0240715
0002a0 84 d1 e2 bf f8 2d a3 3e 2e 66 77 3e 3f ff b7 bf
       -1.7720189 0.3187101 0.24160072 -1.437477
0002b0 d0 51 a6 3f 16 ea 81 bf 4d 85 f4 bf 85 71 26 40
       1.2993717 -1.0149562 -1.910318 2.6006787
0002c0 ee 4e 5b be b0 7a a3 3f 34 1e 5d be eb 32 16 bf
       -0.21416828 1.2771816 -0.21593553 -0.58671445
0002d0 b6 66 0c c0 75 7a 7a c0 58 e0 7e bf 02 a9 35 be
       -2.193769 -3.9137242 -0.9956107 -0.17740253
0002e0 5e 09 46 40 ad 2d dc bf b4 e0 9e bf dd ad c7 be
       3.0943217 -1.7201439 -1.2412324 -0.38999835
0002f0 5e 0a fa be 50 03 b6 bf 99 99 18 c0 83 e9 34 bf
       -0.48836035 -1.4219761 -2.3843749 -0.7066881
000300 92 57 72 bf ce e1 5d 3e 1a f2 d3 3c 4f d1 d6 be
       -0.9466487 0.21668169 0.025872279 -0.41956565
000310 ca b9 0a c0 e7 ce c8 3e cc 4a 89 bf d1 7b de bf
       -2.1675897 0.39220354 -1.0725951 -1.7381536
000320 d4 25 80 be af 04 4f be fb d3 07 bf 7c 2d ae bf
       -0.2502886 -0.2021663 -0.5305783 -1.3607631
000330 f9 be 9f bf ab 47 6a bf ed 8e 8e bf 93 b1 a4 bf
       -1.2480155 -0.91515607 -1.1137367 -1.2866691
000340 51 fc 91 bf b2 47 c2 3f 4f 40 82 3d 42 8a 8f bf
       -1.1405126 1.517813 0.06359922 -1.1214068
000350 aa b2 73 bf c4 5d 81 ba ed b2 ac 40 a5 a3 8b bf
       -0.95194495 -0.0009869863 5.3968415 -1.0909315
000360 a2 4e 73 3d af b0 df bd 48 65 85 3f e9 42 19 3f
       0.059401162 -0.109223716 1.0421534 0.5986772
000370 7f 7f 55 40 80 60 93 3f a0 50 9f 3f 57 9a d6 bf
       3.3359067 1.1513824 1.244648 -1.6765851
000380 46 b8 b2 3f 4e 0b 03 c0 d7 5d 4f c0 13 66 1c 40
       1.3962486 -2.047565 -3.2401025 2.44373
000390 86 99 1e bf 10 53 76 3f f2 82 0e c0 7e 89 5d 40
       -0.6195301 0.96220493 -2.2267423 3.4615169
0003a0 e2 16 3d c0 6f f3 cf bf 4b d8 a4 bf b1 ae d0 3f
       -2.9545217 -1.6246165 -1.2878507 1.6303312
0003b0 1a 76 be 3d 1e b0 21 be 4b 4c 25 bf f0 ca 3f 3e
       0.0929987 -0.1578984 -0.6456954 0.18729758
0003c0 30 c2 82 bd 0d 8e 91 be 8b 43 a5 bf 34 c8 31 bf
       -0.063846946 -0.2842869 -1.2911237 -0.6944611
0003d0 ef 47 c7 bf c4 67 ef 3f 4c 50 bf be 6e e8 25 c0
       -1.5568827 1.8703542 -0.3736595 -2.5923114
0003e0 dc c6 8d bf 04 c2 83 3f 68 f4 6d bf 59 bb 0b 3f
       -1.1076312 1.0293584 -0.9295106 0.54582745
0003f0 b8 c7 cf be 50 3e f9 bd 93 5d d9 3d 4e a5 11 c0
       -0.4058206 -0.12170088 0.10613551 -2.2757144

l2.weight f4 [300, 400]
000000 9d 02 3d 3f 18 be 2d bf b1 87 67 40 bf 07 a1 3f
       0.7383211 -0.67868185 3.617657 1.2580489
000010 9f a5 f0 bf 76 7e 4a 40 6d 19 c8 3e 77 80 03 c1
       -1.8800544 3.1639686 0.39081898 -8.2188635
000020 07 c0 84 3f 8f ed 80 c0 d5 6b c6 3c a3 b6 08 c0
       1.0371102 -4.028999 0.02422134 -2.1361473
000030 5d cc 76 bf f0 48 57 c0 74 6b 06 bf 4a b7 29 c0
       -0.96405584 -3.3638268 -0.5250771 -2.651812
000040 fb f0 a7 bf 1c 1f 0f c0 e9 75 5c be 7a cf 11 c0
       -1.3120416 -2.2362738 -0.21529354 -2.2782884
000050 56 52 58 bf 98 6c 0e 40 e3 c4 f2 be a9 95 1b 3f
       -0.84500635 2.225378 -0.47415838 0.6077524
000060 1b b6 71 40 3b db e0 3e 02 10 b7 be 53 72 ca bf
       3.7767398 0.4391726 -0.357544 -1.5816139
000070 39 f3 52 40 3c f5 52 c0 9e 18 45 3f 94 a1 f0 3f
       3.2960951 -3.296218 0.7699069 1.879931
000080 d3 60 51 40 9d c5 6d c1 16 0e 4e 40 ce 93 3f c1
       3.2715347 -14.860745 3.2196097 -11.973585
000090 e7 d4 d8 bf c7 b4 25 40 ad 60 85 3f ce 8d 08 c1
       -1.6939973 2.5891588 1.0420128 -8.53462
0000a0 fd cc ce be 22 06 94 3f 87 18 19 c0 84 cf da 3f
       -0.4039077 1.1564372 -2.392122 1.7094579
0000b0 98 23 08 40 64 97 97 c0 8f 8f a4 c0 66 db c8 bf
       2.1271725 -4.7372303 -5.1425242 -1.5691955
0000c0 97 ed 37 40 29 6b ae bf 21 a4 d4 3e 82 c6 8c c0
       2.8738763 -1.3626453 0.4153147 -4.399232
0000d0 10 75 c5 bf 18 24 d9 c0 e9 78 e1 3f 96 71 3f 40
       -1.542635 -6.785656 1.7615024 2.9913077
0000e0 02 63 e0 bf ea 47 7a bd 27 9f bb c0 b8 d1 81 3e
       -1.7530215 -0.06110374 -5.863178 0.25355315
0000f0 cf 59 0e 3f d8 d0 ff ba 01 0b 92 bf b5 97 a7 c0
       0.5560579 -0.0019517196 -1.1409608 -5.237269
000100 7f f0 98 3f 56 59 7d 3f 5f 65 94 3f 17 7d 64 c0
       1.1948394 0.9896444 1.1593436 -3.5701349
000110 a5 f6 df c0 45 1c c5 bf a7 4c 06 40 9a b7 2e bf
       -6.998858 -1.5399252 2.0984285 -0.68248904
000120 af 42 c4 be d6 a1 94 be 08 4c 9f 3e a4 fe 29 c0
       -0.38332126 -0.2902972 0.31112695 -2.656167
000130 79 4d d7 c0 06 88 8b c0 0d 37 71 bf 23 bd 15 c0
       -6.728207 -4.3603544 -0.94224626 -2.339669
000140 0e 89 8a be 9e 40 23 3f f3 80 90 bd f7 40 9f c0
       -0.2705769 0.63770473 -0.07055845 -4.9766803
000150 4a fd c3 3f cb 11 ee 3f 1e f6 08 3f ff 7a d3 bf
       1.5311673 1.859918 0.53500545 -1.652191
000160 de c5 08 c0 5a 47 b2 c0 8e 13 8e c0 94 ae 53 3d
       -2.1370769 -5.57121 -4.439887 0.051680163
000170 ad a5 c0 3f 46 24 3a 40 4a f9 14 bd eb 73 94 bd
       1.505056 2.908464 -0.036370553 -0.07248672
000180 f7 9c 81 bf f4 e7 36 c0 cc 86 ed bf fb f3 e8 bf
       -1.0126027 -2.8579073 -1.8556762 -1.8199457
000190 50 1e 19 c0 27 a6 90 3e f4 d1 51 c0 41 79 8d 3f
       -2.3924751 0.28251764 -3.2784395 1.1052629
0001a0 99 4e 4f 40 08 93 a0 3d 27 37 c6 3e cb 3c ee 3e
       3.2391722 0.07840544 0.38713953 0.46530756
0001b0 a8 1a 9f bf 69 56 7f 40 9d 4d b0 bf 09 03 0b c1
       -1.243001 3.989649 -1.3773686 -8.688241
0001c0 84 82 46 40 7b f8 a9 c0 f7 d9 45 bd 66 09 78 3e
       3.101716 -5.311582 -0.04830357 0.24222335
0001d0 8f a9 17 c0 2c 67 25 c0 81 96 3b c0 05 9c 19 c1
       -2.369724 -2.584422 -2.931061 -9.600591
0001e0 8c 6e 23 c0 ca 45 79 c0 bf 51 22 40 75 83 5e bf
       -2.5536222 -3.8948846 2.5362394 -0.8691934
0001f0 7f ff c6 3e 02 fa 96 3f 41 1b 93 bf bd 2b 86 c0
       0.38866803 1.1795046 -1.1492692 -4.192839
000200 20 56 3d bd 6c 96 19 c1 01 3c eb 3f 99 a1 8b 3f
       -0.046224713 -9.599224 1.8377687 1.0908691
000210 39 ba 1c c0 53 92 17 40 08 ce ff bf 83 eb 02 c0
       -2.4488661 2.368306 -1.9984751 -2.0456245
000220 d1 33 53 40 63 f4 04 be ca 34 80 bf 95 d3 cf bf
       3.3000376 -0.12983851 -1.001611 -1.6236445
000230 5c c9 b6 bf a3 2f 0a c0 61 22 52 3f bd 15 13 c0
       -1.42802 -2.1591575 0.8208371 -2.2982018
000240 60 71 78 3f f7 4c b7 bf 07 cf 5c 3e 4f 29 d3 bf
       0.97047997 -1.4320363 0.2156335 -1.6496981
000250 18 0c 28 3f 95 7d b0 be 17 58 97 3f 23 44 56 40
       0.65643454 -0.3447081 1.1823758 3.3479087
000260 b8 5a 09 c0 60 ec d7 3f ca de d0 bf c7 5f 4b c0
       -2.146162 1.6869011 -1.631799 -3.1777208
000270 c6 dd 08 bf 1f c9 ff 3f b3 85 52 c0 7f 2d c7 c0
       -0.534634 1.9983252 -3.2894104 -6.2243037
000280 d9 a4 8e 3f 34 7e 0a c0 8d 6c 93 40 6b d8 0a 3e
       1.1144058 -2.1639528 4.607001 0.1355912
000290 ad 77 2a 3f 79 5d cd bc 5e 22 80 40 76 e2 4d 40
       0.6658886 -0.025068985 4.004195 3.216947
0002a0 39 7f 39 c0 cd 9e 00 3f b4 87 cd 3f 34 90 b8 c0
       -2.89839 0.5024231 1.6057038 -5.767603
0002b0 6b 25 cd 3f c0 63 6d 3f 30 f6 e4 bd 5c c9 83 3f
       1.6027044 0.9273033 -0.11179769 1.0295825
0002c0 f5 ae 8c bf f8 66 2c 40 04 47 5c bf c0 0b 04 c1
       -1.0990893 2.6937847 -0.8604586 -8.252869
0002d0 4a 1d 66 c0 8e 35 52 c0 47 ab 2a c0 d6 ec b9 bf
       -3.5955377 -3.2845187 -2.666704 -1.4525402
0002e0 f7 26 a7 3e 25 5a 4c bd 13 af 83 be a3 7a a5 be
       0.32646915 -0.049890656 -0.2571951 -0.32320127
0002f0 d0 5d 0e 40 58 3b e1 c0 40 b3 7e c0 d2 5c 2e c1
       2.2244759 -7.038494 -3.9796906 -10.897661
000300 8a e6 8c 40 7c 64 2f bf cd d7 c4 3f d4 76 1d bf
       4.403142 -0.685127 1.5378357 -0.6150944
000310 99 e7 8d c0 c1 bd 0d 3f 03 25 03 c0 e5 f3 37 3f
       -4.434521 0.55367666 -2.049134 0.7185653
000320 fc 36 af be 53 97 3f 3f b2 55 7a bf 4a 3b e4 3f
       -0.34221637 0.7484028 -0.9778701 1.7830594
000330 3f 04 a7 3f 18 1b bc bf e2 36 a9 bf a5 42 b2 bd
       1.3048171 -1.4695768 -1.3219874 -0.08704118
000340 fc 8f cd bd 17 6a 8e bf 37 17 0e 40 8b ca 36 40
       -0.100372285 -1.1126126 2.220167 2.8561122
000350 29 9e 75 bf 9f 5f ca bf ca de e0 3f a3 23 94 c0
       -0.9594446 -1.5810431 1.756799 -4.62935
000360 bc 6e 05 c1 40 e1 a7 c0 c8 a6 d7 3e a1 17 80 3f
       -8.339535 -5.2462463 0.42119431 1.0007211
000370 75 3f a8 3f 75 9c 76 3e 83 bf 8e 3e a7 4f f4 3f
       1.3144366 0.24083121 0.27880487 1.9086808
000380 00 53 00 40 6e d7 21 40 0f 58 5b c0 ad 92 96 bf
       2.005066 2.5287738 -3.4272497 -1.1763512
000390 6d 88 2d 3d 8b 6d 19 bf 01 7b f0 be 18 5f 65 bf
       0.042366434 -0.59932774 -0.46968845 -0.89598227
0003a0 04 b2 e2 bf 66 1a 96 bf 49 24 68 bf 19 dd 81 c0
       -1.7710576 -1.1726806 -0.90680367 -4.0582395
0003b0 94 a9 cb bf 3e 38 25 bf 47 e6 ab 3f ba 71 76 bf
       -1.5911126 -0.64538944 1.342965 -0.9626728
0003c0 55 54 b3 3f f9 bb 85 c0 f6 e9 33 c0 da 62 85 bf
       1.4010111 -4.179196 -2.8111548 -1.0420792
0003d0 6a 85 01 c0 e5 96 04 c0 a4 e2 4d 3d b1 4e 90 c0
       -2.023768 -2.0717099 0.05026497 -4.509606
0003e0 6d a5 8a 3f 5b 8f bd bd 35 2b 32 3f bb 6e 20 3f
       1.0831734 -0.092558585 0.6959718 0.6266896
0003f0 40 2a 8d bf 59 56 1b bf ca 45 bb bf 96 fd 20 be
       -1.1028519 -0.6067863 -1.4630673 -0.15721735

l2.bias f4 [300]
000000 b9 c8 b1 3f 19 bb 0d 3c 6d 8f 9f 40 ec 89 1e 40
       1.3889381 0.008650565 4.986258 2.477168
000010 e5 c6 db bc 0a 22 e6 c0 f3 ba df 3f dd b2 a8 bc
       -0.026828239 -7.191655 1.7478927 -0.020593101
000020 92 25 c6 bf fb b0 fa bf 1d a2 c8 40 6c e4 8b 3f
       -1.5480216 -1.958526 6.269789 1.0929084
000030 69 e3 72 40 91 53 fc 3f 1f 2b 05 40 31 1b ef 3f
       3.79513 1.9713002 2.080757 1.8680173
000040 20 b7 3c 40 55 5c c9 bf 93 b4 dd bf 1d ba e6 40
       2.948677 -1.5731302 -1.7320732 7.210219
000050 08 48 10 c0 9d ba 12 40 18 93 b1 3c 70 93 c8 3f
       -2.2543964 2.29264 0.021676585 1.5669994
000060 49 d6 0b 40 e1 c7 83 3f b1 4e c3 be 6f b5 47 3e
       2.184954 1.0295373 -0.38145974 0.19502805
000070 24 1c 27 bd d7 4a 41 39 72 fa f5 c0 40 96 51 40
       -0.04079832 0.00018433794 -7.686822 3.2747955
000080 18 88 e0 3f 43 1a 01 bf f0 b9 08 40 85 7f 45 bd
       1.7541533 -0.504307 2.1363487 -0.048217315
000090 54 9c be bd ab 18 bb 40 b5 6c e1 40 a1 6f a2 3f
       -0.09307161 5.846761 7.04452 1.2690316
0000a0 99 5a 9e 40 a7 6c e9 40 56 d6 e2 3e 13 fa ee 3e
       4.9485593 7.294513 0.4430415 0.46675166
0000b0 de fc ce be 7e 69 32 bf d7 05 b4 40 ce e1 69 40
       -0.40427297 -0.6969222 5.625713 3.654407
0000c0 b1 68 a2 40 b8 df 04 3f e6 0f f0 3f 20 96 52 bf
       5.0752797 0.5190387 1.8754852 -0.8226032
0000d0 6d 12 28 c0 3b 38 68 bb 5f 45 82 40 92 9b 48 40
       -2.6261246 -0.0035433907 4.070968 3.1344953
0000e0 57 d8 9e 3c 3c f4 51 bf fd 3a cb bf e3 b7 04 bf
       0.019390268 -0.820133 -1.5877377 -0.5184309
0000f0 b2 1a a9 bf 46 70 34 bc b5 6c 82 bd 4b dc 27 bd
       -1.3211272 -0.011013096 -0.063683905 -0.040981572
000100 63 b4 80 bf b7 67 bc 40 17 3d ca 3f 6e fb df bf
       -1.005505 5.8876605 1.5799893 -1.7498605
000110 56 38 bd 40 6f 26 08 3f 0e f7 73 bd 73 34 e6 40
       5.913127 0.53183645 -0.05956178 7.1939025
000120 8e 90 9b 3e ae ba 22 c0 fc e3 80 bf e8 b1 d1 40
       0.30383724 -2.542644 -1.0069575 6.552967
000130 d1 ac 21 bd eb 2c d5 3f c8 e2 ea 3f f0 19 40 40
       -0.03947145 1.6654333 1.8350458 3.001583
000140 d7 0a 44 3f f5 86 9a 40 81 e5 a5 40 43 c1 30 3f
       0.7657904 4.8289742 5.1842656 0.69044894
000150 6b 7b c0 3f b6 00 00 c0 28 b5 15 40 a6 1a 16 3f
       1.5037664 -2.0000434 2.339182 0.5863441
000160 2e c2 a5 bc 1e 69 4a bd 44 a7 e4 40 45 08 cb 40
       -0.020234194 -0.049416654 7.145418 6.3447595
000170 ab 74 28 3f e3 1f 12 c0 36 15 b1 3f 21 ea 28 40
       0.6580302 -2.2831962 1.3834598 2.63929
000180 0c 00 eb 40 cb 90 f0 3f cc 6a 12 be 49 9c 2a bd
       7.3437557 1.8794187 -0.14298552 -0.04165295
000190 5f f0 32 bc 78 41 27 40 a0 43 9b bf 43 e7 c5 bf
       -0.010921567 2.613371 -1.2130013 -1.54612
0001a0 9e 7d b3 bd 2f 70 b9 be 80 9b ad 3f 49 ae 23 bd
       -0.08764194 -0.36218402 1.356308 -0.039961133
0001b0 91 14 4d 3f 5c 20 9a bd ac d7 25 40 b9 c6 8c 3f
       0.80109507 -0.07525703 2.5912886 1.0998145
0001c0 78 48 09 c0 cd 93 ee 3f 26 47 8c 40 e1 cd d6 40
       -2.1450481 1.8638855 4.383685 6.7126317
0001d0 0c e3 c9 bf a4 18 dd 40 d4 08 c0 40 08 1a b8 3f
       -1.5772414 6.909258 6.0010777 1.4382944
0001e0 82 4f af c0 2b 58 88 bc 49 85 1d bc 16 32 c9 40
       -5.4784555 -0.016643604 -0.009614297 6.287364
0001f0 6a c2 da c0 52 0c 65 bc a9 af 47 c0 5b 97 2f 40
       -6.836232 -0.013979988 -3.1200964 2.743613
000200 3d 54 21 40 43 d8 5d bc 38 aa 43 3f ed 32 ec 40
       2.5207665 -0.01354033 0.7643161 7.3812165
000210 64 54 4d be 52 de c9 3c c7 7f e7 3f 9d cd 8b 40
       -0.20051724 0.024642143 1.808587 4.3688493
000220 f3 89 9d 3f 83 fb c6 be 49 0f f9 bc b5 20 2b bd
       1.2307724 -0.38863763 -0.030402796 -0.04177924
000230 c3 0c 90 3c 18 9a 47 40 ea d7 84 bc 1f c9 21 c0
       0.01758421 3.1187801 -0.016216237 -2.5279005
000240 82 12 0e 40 f3 f1 be be 70 fc dd bf da 58 4c bf
       2.2198796 -0.37293968 -1.7342663 -0.79823077
000250 f2 ec 45 bd 10 41 b5 3f 63 b4 8d bd 3d 86 2a bc
       -0.04832167 1.416048 -0.06919172 -0.010407981
000260 c7 6c e8 40 2c 13 a9 3f 03 61 52 c0 a8 89 67 bd
       7.2632785 1.3208976 -3.2871711 -0.056527764
000270 56 0c 38 bc c8 bd ac bf 57 51 a1 bf 10 47 a3 bf
       -0.01123341 -1.3495417 -1.2602948 -1.2756062
000280 e2 d7 94 40 3d 57 97 40 32 c8 eb 40 e1 a0 8d 3f
       4.651353 4.729399 7.368188 1.1064721
000290 38 a5 d8 40 13 d4 bd 3f 21 b0 98 c0 a3 6a d6 bf
       6.7701683 1.4830345 -4.7715 -1.6751293
0002a0 99 9a 19 bf f0 6c 2d bd 22 55 51 bf 90 ab bf 40
       -0.6000152 -0.04234022 -0.8177053 5.9896927
0002b0 85 86 b6 40 fb 55 02 40 eb 51 b5 3f ae 1d b7 40
       5.703921 2.0364978 1.4165624 5.722373
0002c0 fa 5e 0a 3c 9e e8 55 bd 37 3d d0 c0 c2 6a ce bf
       0.008445496 -0.052223794 -6.5074725 -1.612633
0002d0 79 5f a8 3f 05 20 ed 40 3e 52 3d bc 39 62 02 40
       1.3154136 7.4101586 -0.011555253 2.037245
0002e0 1f 83 a4 40 78 1c 30 c0 ba c3 97 3e 1b 29 25 c0
       5.141006 -2.7517376 0.29641515 -2.5806339
0002f0 19 c4 d0 40 e5 60 a8 40 fd 9b e6 40 83 6b 00 3f
       6.5239377 5.261828 7.2065415 0.5016405
000300 15 a0 42 bf 2c b4 94 bc 5a 88 9d 40 f5 9c 26 bd
       -0.76025516 -0.018152319 4.9228945 -0.04067703
000310 49 08 ab 3f 3c 5c e4 40 62 0e b2 40 47 81 ac bf
       1.3361903 7.136259 5.5642557 -1.3476952
000320 cd f3 ae 40 9a 83 21 bf 67 d7 ab be 16 6d 3c 40
       5.467261 -0.63091433 -0.33562776 2.944158
000330 a7 30 45 40 f7 32 8e bb 6f a9 7e bb ca 76 a8 40
       3.0810945 -0.0043395716 -0.0038858315 5.2645006
000340 cb e5 66 40 78 ac c4 40 dc 17 0c 3c 63 99 9a bd
       3.6077754 6.1460533 0.00855061 -0.075487874
000350 c8 13 28 40 47 86 d5 bf 4e 06 d5 40 51 1b 15 bd
       2.6262074 -1.6681603 6.6570196 -0.036403004
000360 96 51 84 40 77 c9 e9 40 03 2c ce be 60 c2 e7 40
       4.134959 7.305843 -0.40267953 7.2424774
000370 2a 44 8b bd ba ef d9 3f b3 d6 4d bd a4 ae 02 40
       -0.06800111 1.7026284 -0.05025358 2.0419092
000380 e0 d1 e6 be 7b fe 04 40 c9 03 e4 40 7c f5 42 bd
       -0.45081997 2.0780323 7.125462 -0.047597393
000390 c6 47 ae 40 27 0e ec 40 da 43 d4 3f bc 48 a8 3c
       5.4462614 7.3767276 1.6583207 0.020542495
0003a0 ca 02 30 bc fc ed 0d c0 a5 ef 4e bd 54 62 55 bd
       -0.010742852 -2.2176504 -0.05052151 -0.052095726
0003b0 5b 1c 78 3f 04 3c b6 3f 90 b8 ce 40 3e 28 ea 40
       0.96918267 1.4237065 6.4600296 7.3174124
0003c0 ba 79 2f 40 43 12 80 bd c0 bc 43 bf 80 f9 61 40
       2.7418046 -0.06253483 -0.76459885 3.5308533
0003d0 09 6b 90 bf be b3 ae 40 14 4c b8 40 6c d0 b3 40
       -1.1282665 5.459441 5.759287 5.619192
0003e0 df 63 09 3f d8 c1 98 c0 6f a8 00 c0 e7 64 91 3f
       0.53668016 -4.7736626 -2.0102804 1.1358918
0003f0 36 85 87 3f 3a 5f 55 3e 43 c9 0b 40 9e c0 9c bf
       1.0587528 0.20837107 2.184159 -1.2246282

l3.weight f4 [1, 300]
000000 3a ad 9f c1 18 ce 00 41 3d 27 7c 40 19 86 bc 40
       -19.959583 8.050316 3.939895 5.8913693
000010 64 c4 00 bc 8f 8b cb c0 44 d5 af 40 2f f0 e7 3b
       -0.007859323 -6.360786 5.4947834 0.0070781927
000020 7b 79 45 c2 24 f1 b3 41 25 88 43 40 15 ed a3 c1
       -49.368633 22.492744 3.0551846 -20.490763
000030 80 9a 5a 40 56 28 dc c1 8d 30 a3 c1 a5 e9 2d c2
       3.41568 -27.519695 -20.398706 -43.47817
000040 f4 33 2c 40 10 37 a8 c1 ea f4 c1 41 c8 2b 7d 3f
       2.690671 -21.026886 24.244587 0.9889493
000050 8a 1c b2 c1 01 f5 1d c2 9f 93 c4 bc 94 bb 96 40
       -22.263935 -39.48926 -0.023996172 4.7103977
000060 17 24 e3 c1 4e 3b 44 c2 34 66 ac c1 a6 18 8b c1
       -28.392622 -49.057915 -21.549904 -17.387035
000070 14 1d 0a 3c 02 80 4c bc 96 5d 39 c1 70 41 b0 40
       0.008429784 -0.012481691 -11.585348 5.507988
000080 8a 59 7d c2 01 09 52 c2 fd 18 d1 c1 0c 04 5d 3b
       -63.33744 -52.508793 -26.137201 0.0033724336
000090 b5 66 d7 3c e8 d9 2f 40 99 36 23 3f 66 a4 cf c1
       0.026294092 2.747675 0.63755184 -25.955273
0000a0 ea 23 92 40 e1 10 5e 3f 28 dd d9 c1 96 2f f8 c1
       4.566884 0.86744505 -27.232986 -31.023235
0000b0 99 4d 3a 41 df 95 9a c1 2c 51 2a 3f 8f b8 c2 c0
       11.643945 -19.32318 0.6653011 -6.085029
0000c0 7d e2 96 3f a5 99 c0 c1 a6 3f a4 40 66 76 61 41
       1.1787869 -24.075022 5.1327696 14.091406
0000d0 0a ab 26 c1 7e 60 f4 bc 15 13 18 40 f9 39 7c c2
       -10.416758 -0.029831167 2.3761647 -63.056614
0000e0 76 96 52 ba 2c 8d fa c1 0c 3c 5b c1 8e ec 3b c2
       -0.00080332847 -31.318932 -13.70216 -46.98101
0000f0 7d 01 23 41 76 d0 d4 bb 1b f3 6c 3c ac 0d 9b 3c
       10.187863 -0.006494577 0.014462258 0.018927418
000100 47 2e 66 c1 94 cf 30 40 57 0b 14 c2 6d ce 06 c2
       -14.386298 2.7626696 -37.011074 -33.701588
000110 69 61 13 40 7a b9 59 c2 1b 5b 3c 3c 2f a7 46 3f
       2.3028204 -54.43113 0.011496331 0.7759885
000120 da 85 3e 40 a2 ee 4e c1 2b 39 1c c2 d6 00 ea 3f
       2.9769197 -12.93326 -39.05583 1.8281505
000130 15 87 30 bb 35 a9 47 c2 ca 4e 0c c2 0c 3d e8 40
       -0.0026935984 -49.91524 -35.076942 7.257452
000140 f7 2e 0f c2 6f 7e 2f 40 17 f2 c0 3f f2 dc ed c1
       -35.795864 2.742092 1.507388 -29.732883
000150 54 c4 3f c2 93 ba 56 c2 bc 9b 26 c2 31 93 9b c1
       -47.941727 -53.6822 -41.652084 -19.44687
000160 54 fc 9d 3c 43 93 01 bc 86 63 76 3f c7 49 2d 40
       0.019285358 -0.007908645 0.9624561 2.707628
000170 6c d8 07 c2 17 59 39 c2 00 f7 8b 40 b9 17 84 40
       -33.96135 -46.337 4.3739014 4.127896
000180 97 82 58 3f 4d 24 a7 c1 2c 38 b1 40 48 3e b5 3c
       0.84574264 -20.892725 5.538107 0.022124425
000190 79 bb cc bc aa 74 3a 40 0b 92 ae 41 f8 3a 52 c1
       -0.024991738 2.9133706 21.82131 -13.139397
0001a0 cc e0 43 3c 4e db 1d 41 29 2c 16 c2 ef 22 e7 bc
       0.011955451 9.866041 -37.543125 -0.0282149
0001b0 8a 75 3b c2 39 bf 02 3c 59 a3 5e 40 51 6c 29 c2
       -46.864784 0.007980161 3.47872 -42.355778
0001c0 2b 2a 59 41 4b 82 5f c1 78 8a 07 40 23 61 c1 3f
       13.572795 -13.96931 2.1178265 1.5107769
0001d0 b9 ae 3e 41 a9 0f 25 40 e6 74 2f 40 a0 43 f2 c1
       11.917657 2.5790808 2.74151 -30.28302
0001e0 aa f6 f2 c0 61 f1 02 bd e7 3c 10 bd 05 8a 0f 3f
       -7.5926104 -0.031968478 -0.03521433 0.56069976
0001f0 89 a2 27 c1 68 d8 71 38 f1 96 38 c1 eb 63 19 c2
       -10.477181 5.766042e-05 -11.536851 -38.347576
000200 37 6f 94 c2 83 6c 87 bc 5f ef 16 c2 74 2b 72 3f
       -74.21722 -0.016531235 -37.73376 0.94597554
000210 5a 7e 1d c2 f4 b4 14 3b 7b 4f ad c1 ff 2f b9 3f
       -39.37339 0.0022690864 -21.663809 1.4467772
000220 93 ee 77 c1 e9 65 02 c2 74 1f b0 bb 02 72 fa bc
       -15.495746 -32.59952 -0.0053748433 -0.030571941
000230 f4 2d c5 c1 e3 40 9f c1 50 d0 11 ba f8 e0 18 41
       -24.647438 -19.906683 -0.0005562352 9.554924
000240 43 62 0f c2 35 e2 6d 41 af 2c 37 41 aa 95 e0 c1
       -35.84596 14.867726 11.448409 -28.073078
000250 55 b6 db bb 45 48 d5 c1 17 18 ae bb 93 2a 43 bd
       -0.0067050853 -26.660288 -0.0053129303 -0.047648024
000260 a0 d1 43 3f 78 da 80 c1 44 08 12 c2 60 1a 2e bd
       0.7649174 -16.106674 -36.50807 -0.042505622
000270 78 2e 93 c1 15 6e 0c c1 3e 08 19 41 21 13 03 41
       -18.39769 -8.7768755 9.564512 8.19217
000280 b8 6f 22 40 43 72 76 40 83 c1 58 3f 55 04 bc c1
       2.5380688 3.850724 0.84670275 -23.502115
000290 20 01 b2 3f 55 6e 56 c2 a9 b1 e9 c0 80 6a 8b c2
       1.3906593 -53.607746 -7.302937 -69.70801
0002a0 0f b9 c2 40 a3 68 19 bc 21 fd 66 41 06 d6 eb 3f
       6.08509 -0.009363326 14.436799 1.842469
0002b0 f2 bc 10 40 d6 0b b1 40 8d 06 06 c2 b2 02 82 40
       2.2615323 5.532695 -33.506397 4.062829
0002c0 b3 2b 2f bd 01 57 89 bc 3d dc e9 c0 5f 2e 05 41
       -0.042766284 -0.01676512 -7.3081346 8.323821
0002d0 b8 ba e7 c1 1c 31 74 3f 69 95 c8 bc 22 f5 4c c2
       -28.966171 0.95387435 -0.024485307 -51.239388
0002e0 de 27 ef 3f 26 da de c0 fc f2 dc c1 8c d9 80 c1
       1.8684042 -6.9641294 -27.618645 -16.106224
0002f0 27 3d fb 3f 84 a2 d9 3f 9d e7 6f 3f f4 f4 ab c1
       1.9628037 1.7002721 0.9371279 -21.494606
000300 68 43 31 c2 d9 87 60 3c 88 c6 11 40 f8 a7 07 bd
       -44.315826 0.013704264 2.2777424 -0.03311917
000310 e1 fd 56 41 38 48 36 3f 17 04 ee 3f 10 f0 97 40
       13.436982 0.7120395 1.8594998 4.7480545
000320 8a 51 1f 3f 06 75 f7 c1 78 2e 73 c2 e5 ef 74 c2
       0.62233794 -30.93214 -60.79538 -61.234272
000330 33 b6 a2 40 6b 9b f6 3b 75 3b 1e bd 0c 06 d1 3f
       5.084741 0.0075258515 -0.03863092 1.632997
000340 d3 f5 e1 c1 62 47 03 40 aa dd b2 bd f9 65 de bc
       -28.245031 2.0512319 -0.08733685 -0.027148234
000350 5d 92 21 40 5e 89 1d 41 77 25 80 3f 2f 54 da bc
       2.5245583 9.846037 1.0011433 -0.02665147
000360 71 92 0f 40 e2 cc 5e 3f 1c 86 8f 40 0a 20 83 3f
       2.243313 0.87031376 4.485121 1.0244153
000370 a5 67 42 bc ff 02 f4 c1 15 ff b3 bb 7a e4 6f 40
       -0.011865531 -30.501463 -0.0054930546 3.74832
000380 e6 d3 fd 40 0f a5 5b c2 6e af 34 3f 9b e3 f5 bb
       7.9321165 -54.91119 0.70580184 -0.0075039393
000390 c1 6f 6a 40 7f be 69 3f 3f 6f ff 40 c4 11 2b 3b
       3.663071 0.913063 7.98233 0.0026103118
0003a0 49 20 0f 3c f3 ca 16 c1 14 a2 23 bb 90 af 5d 3b
       0.008735725 -9.424548 -0.0024968432 0.0033826567
0003b0 e0 dc ec c1 dd ea ed c1 c1 9b 66 3f 80 38 4e 3f
       -29.60785 -29.73968 0.9008141 0.8055496
0003c0 a6 92 9e c1 0a cb 0c 3c b9 f0 ad c1 8b b5 2b 40
       -19.821606 0.00859333 -21.74254 2.6829555
0003d0 f6 db 2f 41 08 44 8e 3f ff 8d a6 3f d4 79 a1 3f
       10.991201 1.1114511 1.3012084 1.2615304
0003e0 ce a0 2e c2 26 71 0f c2 af 7d 02 c2 5e 82 df c1
       -43.657036 -35.860497 -32.622738 -27.938656
0003f0 22 91 db c1 6a 0e 15 c2 bf 33 5e 40 1d ea 93 41
       -27.445866 -37.264076 3.4719083 18.489313
