DDPG/cheetah_actor.pth (torch_old, 532666 bytes, 6 tensors)

l1.weight f4 [400, 26]
5.556049 -0.18838975 -0.55772847 0.25548744 0.08849467 -0.61191344 -0.096614845 1.2375246
1.2757736 0.02734053 -0.33569744 0.14931858 -0.25328058 0.26712558 1.8748813 1.1849232
1.8534281 -0.16303861 -2.3030405 0.6844685 0.1408577 -0.020609796 -0.11680158 -0.5098607
0.050330564 -0.18559948 6.1661 -0.12958264 -1.15875 -0.3459543 -0.06853898 0.83832395
0.06576125 -1.1374205 -0.18656002 -0.33654648 -0.7815958 -0.4004677 2.0432332 -0.3904975
1.516227 -0.03834094 -0.5340564 -0.19094604 0.24142171 0.9474522 0.8356001 -0.15637651
0.08696343 0.17399992 -0.122027926 0.01871866 8.38973 -0.14826165 -0.9815727 1.1747093
-0.18870667 0.85994065 -0.03027299 -0.6197603 -0.38443178 -0.8442874 -0.9030467 -0.05472851
0.5701335 -1.009162 0.82420355 1.5511146 0.3409603 1.1578387 -0.5585768 -0.83401096
0.51658773 0.03272517 -0.07704879 0.13812831 -0.008322403 -0.157872 6.2544565 -0.13601932
-1.2872894 -1.1321527 -0.06420164 -0.3342942 -0.06060484 -3.0778315 -1.0269845 -0.2008245
-1.9827427 -0.53092307 -0.36566693 -0.56415623 -1.2771076 1.4448153 0.66437626 0.20163277
0.7697736 -0.82203335 0.67095715 0.1331286 -0.039963692 -0.1279432 -0.114391476 -0.13721997
-3.5964954 0.1063893 -2.5586653 -0.7246209 0.05058801 -1.1590042 -0.012746468 -2.6035335
-1.8533758 1.8819792 -3.0871832 -0.80318826 0.5088886 -1.4376655 0.37307796 0.1703529
1.0511962 -0.4564632 0.37267438 0.3532601 0.00078869204 0.03134288 -0.00024414062 -0.88647014
-0.13293807 -0.0924954 -1.1086489 0.08577876 -1.7673254 0.60237503 0.096119896 1.9858564
0.13131069 4.527456 0.7187566 0.43141508 0.2747536 -0.39777285 -0.42081568 -1.8269994
-0.10708904 -0.14924866 1.2168326 -1.0617949 0.41055268 0.20641433 0.21055034 0.10325347
0.12280987 -0.140064 -0.13929118 0.17840423 0.6855494 -0.033090472 -2.2367785 -0.34343264
-0.007549718 0.43441314 0.028500408 0.625241 -1.2751637 0.09674355 1.1011692 -0.731937
-1.680554 0.42796484 0.53403693 0.47939032 0.06542475 0.20641628 0.6969579 0.5249257
-0.16111366 -0.16040748 0.05587502 -0.4331691 0.034954235 -0.059674457 -7.265882 0.10308607
-1.7788469 0.8156164 -0.16319953 -2.0572033 0.052549988 -4.1982784 4.53581 2.2779715
4.2432456 1.2559419 0.55514073 -0.25115648 0.77127266 -1.3281316 -0.015165649 -0.46482125
-0.40541366 0.060492333 -0.4822397 0.120106 -0.07252311 -0.38261414 0.00886637 0.10386644
-2.6736233 -0.025930405 -1.4573431 -0.109664835 0.027259171 -0.9959674 -0.16705751 3.437279
2.5426447 0.23075038 -0.25409955 -0.9149542 -0.50810975 0.262976 -1.9388961 -0.8271794
-2.7856596 -1.3070854 -0.38686633 -0.41482866 -0.054459106 0.06656383 0.12243168 -0.34402838
0.12540747 -0.107129164 -0.5584411 -0.18234147 -1.132846 0.78612113 0.066867635 -0.43818286
-0.055443406 2.2362885 0.8356931 -1.9853919 1.712425 1.1841123 1.891468 1.5305985
0.6645333 -1.1076021 0.019085154 -1.0130274 2.067151 0.5656423 -0.78844714 0.108591214
00000000: 27cb b140 3ee9 40be 4bc7 0ebf 40cf 823e
00000010: b23c b53d 5ca6 1cbf 01de c5bd 3567 9e3f
00000020: 8d4c a33f 3ff9 df3c 89e0 abbe f8e6 183e
00000030: fead 81be afc4 883e 1cfc ef3f 90ab 973f
00000040: 223d ed3f 98f3 26be 0465 13c0 5439 2f3f
00000050: 003d 103e e0d5 a8bc ab35 efbd 3b86 02bf
00000060: 6c27 4e3d ca0d 3ebe b150 c540 50b1 04be
00000070: ec51 94bf ec20 b1be 2a5e 8cbd 669c 563f
00000080: d6ad 863d ff96 91bf 9709 3fbe d24f acbe
00000090: aa16 48bf 1a0a cdbe 55c4 0240 4aef c7be
000000a0: ba13 c23f 640b 1dbd ecb7 08bf 5c87 43be
000000b0: 4137 773e 3a8c 723f e3e9 553f 2a21 20be
000000c0: e219 b23d 092d 323e c7e9 f9bd e057 993c
000000d0: 563c 0641 e7d1 17be 5948 7bbf e05c 963f
000000e0: 523c 41be 1225 5c3f 10ff f7bc 9ca8 1ebf
000000f0: 3ed4 c4be 3823 58bf 122e 67bf 012b 60bd
00000100: 45f4 113f 382c 81bf 01ff 523f ec8a c63f
00000110: 5992 ae3e 0f34 943f e4fe 0ebf be81 55bf
00000120: 183f 043f d40a 063d c2cb 9dbd 8271 0d3e
00000130: b05a 08bc 33a9 21be 8224 c840 a648 0bbe
00000140: e6c5 a4bf 61ea 90bf 267c 83bd 9c28 abbe
00000150: c83c 78bd 31fb 44c0 3a74 83bf f0a4 4dbe
00000160: 83ca fdbf 93ea 07bf b238 bbbe 8b6c 10bf
00000170: 4378 a3bf b5ef b83f 9014 2a3f d278 4e3e
00000180: e20f 453f c770 52bf d9c3 2b3f dd52 083e
00000190: f8b0 23bd 8b03 03be 1446 eabd 6483 0cbe
000001a0: fb2c 66c0 a2e2 d93d 2cc1 23c0 c180 39bf
000001b0: 6035 4f3d 405a 94bf 90d6 50bc 4ba0 26c0
000001c0: 6b3b edbf b2e4 f03f 6994 45c0 bf9d 4dbf
000001d0: 8646 023f 6c05 b8bf 1304 bf3e fe70 2e3e
000001e0: 998d 863f 8bb5 e9be 2dcf be3e 82de b43e
000001f0: 3ac0 4e3a 6461 003d 0000 80b9 b5ef 62bf
00000200: eb20 08be 3a6e bdbd 35e8 8dbf c6ac af3d
00000210: b837 e2bf 4035 1a3f 82da c43d 8b30 fe3f
00000220: 4f76 063e ebe0 9040 6f00 383f 70e2 dc3e
00000230: 81ac 8c3e e2a8 cbbe 2775 d7be 1edb e9bf
00000240: 8051 dbbd a4d4 18be 2cc1 9b3f e5e8 87bf
00000250: f633 d23e 475e 533e 829a 573e 8e76 d33d
00000260: be83 fb3d f06c 0fbe 59a2 0ebe 99af 363e
00000270: 2a80 2f3f e089 07bd 6127 0fc0 67d6 afbe
00000280: a063 f7bb 666b de3e b079 e93c cb0f 203f
00000290: 9038 a3bf 7b21 c63d 1df3 8c3f 3960 3bbf
000002a0: 651c d7bf 351e db3e a5b6 083f a672 f53e
000002b0: 69fd 853d ca5e 533e d56b 323f 8861 063f
000002c0: fbfa 24be dc41 24be 34dd 643d 57c8 ddbe
000002d0: 2c2c 0f3d 346d 74bd 1b82 e8c0 ca1e d33d
000002e0: 41b1 e3bf 3dcc 503f c71d 27be 38a9 03c0
000002f0: a83e 573d 4c58 86c0 5b25 9140 49ca 1140
00000300: abc8 8740 b4c2 a03f b41d 0e3f 9597 80be
00000310: 2072 453f 3700 aabf 5879 78bc 0dfd edbe
00000320: 6192 cfbe cfc6 773d 1fe8 f6be 22fa f53d
00000330: ff86 94bd 00e6 c3be 4044 113c eeb7 d43d
00000340: a51c 2bc0 006c d4bc 388a babf f597 e0bd
00000350: a04e df3c b8f7 7ebf 2011 2bbe 61fc 5b40
00000360: b1ba 2240 d449 6c3e 5619 82be 703a 6abf
00000370: 7b13 02bf caa4 863e bf2d f8bf 07c2 53bf
00000380: 3f48 32c0 934e a7bf 5813 c6be 6c64 d4be
00000390: 8310 5fbd 9e52 883d 76bd fa3d 7d24 b0be
000003a0: d16a 003e 8966 dbbd fff5 0ebf b9b7 3abe
000003b0: 1901 91bf 3c3f 493f e6f1 883d 8159 e0be
000003c0: a018 63bd 5a1f 0f40 fcef 553f 5221 febf
000003d0: be30 db3f fe90 973f a01b f23f a7ea c33f
000003e0: db1e 2a3f e8c5 8dbf 7858 9c3c e2aa 81bf
000003f0: 344c 0440 efcd 103f acd7 49bf 1265 de3d

l1.bias f4 [400]
-0.80848694 -1.0602807 -1.0645092 -1.2120453 -2.5297441 -1.8834754 -2.1171932 -1.7611256
-1.3592596 -1.0862232 0.14915757 -1.6941296 -1.4856777 -0.43106392 -1.069932 -2.6145306
-1.666893 -1.8338523 -0.9233416 -1.40646 -2.2498722 -1.7403381 -1.8516992 -1.3462988
-1.7802969 -1.385403 -2.366807 -1.5889865 0.24953337 -1.2950965 -1.1054242 -2.0648494
-1.5377595 -0.9517551 -0.6718046 -0.5153582 -1.5267593 -1.1447107 -1.8119226 -0.21805216
-2.6054118 -1.1251395 -1.6547508 -1.6410236 -0.06359437 -0.1989669 -2.5461495 1.0650192
-0.8128283 -1.714304 -0.69776285 -1.985479 -2.7029722 -1.0949155 -0.7019805 -1.0535234
-2.1026666 -0.9050594 -0.42619556 -1.4744294 -1.3439991 -1.281593 -2.7165263 -0.08407098
0.36502442 -1.5393008 -0.5909333 0.8044253 -2.7810843 -2.1199849 -1.1161056 -1.4125909
-0.41451618 -1.4212182 -0.7444057 -1.9915277 -2.6123881 -2.4509497 -1.4705483 -0.71893704
-2.111965 -0.7560422 -0.90976906 -2.4475074 -1.8731533 -2.215851 -0.8856733 -1.1709905
-1.4195732 -2.3986995 -0.9578113 -0.5753931 -0.14882463 0.16573156 -1.59491 -1.929885
0.5820397 -2.9013765 -0.6090288 -0.4875649 -1.8015783 -0.8899452 -2.4429543 -1.5374289
-1.2531481 -1.9488721 -1.6548555 0.49133635 -0.25447074 -1.7870119 -0.6294155 -0.82182133
-1.504831 -2.378979 -1.3147451 -1.259037 -1.9540787 1.1095816 -1.9103249 -1.8783994
-0.17001742 -0.96774954 -0.7473025 0.048325706 -0.92372686 -1.6427627 -1.9068669 -0.714835
-0.10617306 -1.9620582 -1.528134 -0.8973457 -1.100699 -0.89993274 -1.2509681 0.047653448
-2.834334 -2.562608 -1.8957163 -1.702721 -0.7978853 -1.8909233 -0.9087775 -2.208408
-1.5257846 -0.8920661 -0.96795344 -1.8829511 -2.4325154 -1.488647 -1.8078219 -0.9612117
1.0148553 -0.6914125 -1.8177208 -0.8323763 -2.462357 -1.6703117 -3.149505 0.4273621
-1.4522634 -1.5904334 -0.81585634 -1.7529296 0.09299087 -0.88298625 -2.4847772 -2.7581282
1.2629775 -1.6255715 -1.1830275 -1.2644644 -1.9222543 -0.8010086 -2.2143865 -0.6696503
-1.4824002 -1.2188781 -1.2882226 -0.8884811 0.8650725 -0.19500665 -0.3701516 -2.3061981
-2.1355631 0.23362014 -1.8067192 -1.339005 -1.4913933 -0.8510954 -2.40468 0.032062896
-0.3383892 -1.5233701 -0.41563165 -1.5596876 -0.8127755 -3.5820959 -2.5412898 -1.9261861
-2.305217 -1.0715998 -1.4621285 -1.0350192 -0.40025833 -2.3298166 -2.401301 -1.5792396
-2.0635028 0.123586945 -1.880328 -0.71249163 -0.44923252 -1.4148905 -1.416108 -0.9872101
-1.3689373 -1.5444189 -1.3430836 -1.528544 -1.8574255 -1.6023561 -1.6992377 -1.8683226
-1.4719448 -1.6220524 -1.3484281 -1.7206703 1.4175307 -1.4810703 -0.49181286 -1.694844
-3.309056 -1.7861615 -2.341414 -1.111504 -0.41892627 -2.0407677 -1.7110099 -2.2433221
-1.9594804 -1.2650826 -2.1830404 -1.1852672 -2.0670207 -1.7042832 -1.7982512 -2.6580057
-1.0002395 -1.621426 -1.4781883 -3.0982852 -1.2916344 -1.532168 -0.11244902 -2.022571
00000000: 00f9 4ebf 47b7 87bf d641 88bf 4d24 9bbf
00000010: 54e7 21c0 b915 f1bf 1880 07c0 906c e1bf
00000020: 38fc adbf 5d09 8bbf c3bc 183e 3dd9 d8bf
00000030: b02a bebf 69b4 dcbe 88f3 88bf 7854 27c0
00000040: c05c d5bf acbb eabf 1d60 6cbf e206 b4bf
00000050: e8fd 0fc0 66c3 debf 7b04 edbf 8553 acbf
00000060: c5e0 e3bf e354 b1bf c479 17c0 e963 cbbf
00000070: ad85 7f3e b9c5 a5bf 8a7e 8dbf 7e26 04c0
00000080: 4ed5 c4bf 39a6 73bf 63fb 2bbf 84ee 03bf
00000090: d96c c3bf e185 92bf 14ed e7bf 1149 5fbe
000000a0: 11bf 26c0 9204 90bf e0ce d3bf 100d d2bf
000000b0: c43d 82bd fbbd 4bbe 1df4 22c0 8d52 883f
000000c0: 8415 50bf 506e dbbf 96a0 32bf 2d24 febf
000000d0: 7ffd 2cc0 3126 8cbf feb4 33bf dbd9 86bf
000000e0: 1792 06c0 f9b1 67bf 4e36 dabe 1aba bcbf
000000f0: 2a08 acbf 3d0b a4bf 91db 2dc0 682d acbd
00000100: 7be4 ba3e cf07 c5bf 6847 17bf d1ee 4d3f
00000110: 49fd 31c0 d5ad 07c0 8cdc 8ebf c7cf b4bf
00000120: 773b d4be 7aea b5bf 5f91 3ebf 61ea febf
00000130: 5e31 27c0 5cdc 1cc0 ed3a bcbf 420c 38bf
00000140: 6f2a 07c0 fb8b 41bf a0e6 68bf f6a3 1cc0
00000150: 7dc3 efbf 81d0 0dc0 7cbb 62bf 04e3 95bf
00000160: 93b4 b5bf 4b84 19c0 1f33 75bf f64c 13bf
00000170: 7c65 18be 89b5 293e 0326 ccbf 7906 f7bf
00000180: 8e00 153f 27b0 39c0 50e9 1bbf 1ba2 f9be
00000190: 1e9a e6bf 73d3 63bf 5d59 1cc0 78ca c4bf
000001a0: 2867 a0bf a474 f9bf 4ed2 d3bf 7090 fb3e
000001b0: fd49 82be cebc e4bf 6021 21bf e262 52bf
000001c0: 4d9e c0bf 3141 18c0 9149 a8bf 2028 a1bf
000001d0: 401f fabf c506 8e3f 8785 f4bf 646f f0bf
000001e0: 0c19 2ebe 6fbe 77bf 374f 3fbf 2df1 453d
000001f0: 5d79 6cbf 0c46 d2bf 3714 f4bf 6dff 36bf
00000200: 4371 d9bd b924 fbbf e599 c3bf 73b8 65bf
00000210: b4e3 8cbf fe61 66bf b91f a0bf 4330 433d
00000220: ba65 35c0 c501 24c0 d5a6 f2bf c3f2 d9bf
00000230: 3642 4cbf c609 f2bf a4a5 68bf 8f56 0dc0
00000240: e94c c3bf 725e 64bf cccb 77bf 8b04 f1bf
00000250: 55ae 1bc0 fc8b bebf b566 e7bf f811 76bf
00000260: c7e6 813f 6900 31bf 13ab e8bf 9d16 55bf
00000270: 4297 1dc0 c6cc d5bf 7d91 49c0 35cf da3e
00000280: c4e3 b9bf 5293 cbbf f6db 50bf ff5f e0bf
00000290: ff71 be3d 630b 62bf 9706 1fc0 2c85 30c0
000002a0: 3fa9 a13f ba12 d0bf 726d 97bf f8d9 a1bf
000002b0: 6e0c f6bf e60e 4dbf 82b8 0dc0 346e 2bbf
000002c0: 4abf bdbf 3304 9cbf 7ae4 a4bf 7f73 63bf
000002d0: 6475 5d3f d3af 47be 8384 bdbe c098 13c0
000002e0: 11ad 08c0 1e3a 6f3e 9342 e7bf 8464 abbf
000002f0: fae5 bebf 63e1 59bf 47e6 19c0 6254 033d
00000300: 5941 adbe cbfd c2bf accd d4be d8a3 c7bf
00000310: 0e12 50bf 0f41 65c0 7ea4 22c0 448d f6bf
00000320: ad88 13c0 2f2a 89bf 0727 bbbf 827b 84bf
00000330: a9ee ccbe b71b 15c0 eaae 19c0 8624 cabf
00000340: 6e10 04c0 271b fd3d 97ae f0bf da65 36bf
00000350: ce01 e6be 221b b5bf 0743 b5bf cdb9 7cbf
00000360: 5639 afbf 85af c5bf 2aea abbf 54a7 c3bf
00000370: 1ec0 edbf 011a cdbf 9f80 d9bf 3225 efbf
00000380: b068 bcbf 6a9f cfbf 4b99 acbf ed3e dcbf
00000390: a571 b53f b693 bdbf e5ce fbbe a6f0 d8bf
000003a0: 93c7 53c0 f1a0 e4bf bad9 15c0 c345 8ebf
000003b0: 817d d6be f09b 02c0 5f02 dbbf 9792 0fc0
000003c0: 41d0 fabf 3aee a1bf efb6 0bc0 d6b6 97bf
000003d0: 114a 04c0 f425 dabf 182d e6bf c41c 2ac0
000003e0: d907 80bf e38a cfbf 4635 bdbf 4e4a 46c0
000003f0: 4754 a5bf 151e c4bf ac4b e6bd ce71 01c0

l2.weight f4 [300, 400]
-1.0972043 -0.45970088 0.116938934 -0.7262389 1.2555335 2.2652042 0.873053 -0.8728613
-3.0386443 -0.59471226 -1.28723 0.9728165 1.3233368 0.31481594 -1.0092516 0.7047684
1.3490541 0.013716222 -1.1476036 -0.5157595 1.476127 -0.12584485 -1.6255481 -0.32538426
0.8747818 1.8068604 2.6422503 0.40585095 0.89569813 1.4921097 -0.8488593 0.6430308
-0.15555811 -0.37567338 -0.17848314 -0.01722749 -0.60392475 0.47345114 2.258187 -0.101303644
0.76521784 1.292974 -1.5999484 0.81482506 1.6223439 -3.008582 -0.84512746 -0.085228786
2.4201872 1.0672958 -1.8883464 -1.0510143 -1.0061915 -0.8790911 0.32921895 -0.258485
0.35641974 -1.5932163 2.1882339 -0.96824414 0.30553767 2.879093 -2.1654303 2.5880418
-2.963136 0.33807787 0.19343138 -0.47514915 0.2958189 0.8618471 -0.83459455 -1.6319721
-0.4961382 1.1693454 -0.47709098 -0.8527994 2.3797975 1.031368 0.76632977 1.3801839
0.4478193 -0.10909799 1.8927842 1.0126965 1.2497052 0.95510584 -2.0422792 0.08630875
2.0483384 2.8020296 1.640983 1.2600206 -0.8206052 3.217868 0.11944244 0.6630891
-1.3726265 -1.4820545 -1.0142423 0.36243567 1.9230624 -2.7945616 -1.0022669 3.3160484
0.549648 3.4204953 -0.00017278107 1.1818533 -1.275716 -1.2451043 0.13846743 -3.7280397
-0.7296052 0.9939598 -1.2183213 2.9671533 0.38014713 -0.6911024 -0.28519893 2.1520922
-0.63002646 -0.3812152 1.1202126 -1.0037916 -1.3101648 -0.22026853 2.0051436 -0.67463064
-0.29124588 1.0099788 -2.0106392 0.5841001 -0.25041103 -0.17593573 -0.72678113 -0.7346192
2.8310163 -0.7158348 0.39109394 -2.7898345 0.9820777 2.0737193 3.9928393 1.0012748
-1.5334135 -2.9214785 -0.85849935 0.22796755 0.84474385 0.447591 0.4458975 -0.3776818
1.0518446 -1.7340058 0.45286667 -0.74379104 1.6312526 0.20180157 1.3994019 -0.158311
-3.2055824 2.5824738 -1.5010449 0.029349154 0.10572475 -1.1453435 1.537283 -2.121919
0.99093497 1.4461213 -2.0550165 -0.5701217 0.060125932 1.6742017 1.3545502 -1.865599
-0.6418614 1.249756 -0.9941272 0.19690862 -0.64003766 1.2084134 -0.7367432 -0.517052
-1.4937805 1.5819366 0.0888017 1.2248739 -0.1022389 -1.1926144 0.24650127 -2.0123565
-0.8106063 1.00783 0.011945799 -0.015064224 0.0209246 0.6725876 0.41642627 0.034804817
-0.67509943 -0.4103247 1.6186064 -0.41688293 -1.8133379 0.0023259865 -1.2772713 -0.7826627
-3.0964448 0.12413455 1.6870728 0.2982795 -0.6722222 -2.0663724 1.1979547 -2.1307325
-0.5082982 1.3843052 0.56179786 -0.21762551 -0.87850666 1.4864106 -1.7499353 0.75691324
1.3408391 0.25315747 -0.5000122 0.102563135 -0.03753656 -0.125687 -0.7326849 -0.19300519
1.7873071 -0.022118108 -1.0486349 -0.68174374 0.3322939 0.29433072 -0.05931368 0.08124749
-1.2914132 -1.6502097 3.0052462 -0.1352222 -1.9982709 -3.291988 2.1423714 -2.1584318
0.56244886 -0.51264805 5.1292524 0.59456486 0.5192719 -0.023651827 0.060444694 1.4328326
00000000: 3171 8cbf ea5d ebbe ae7d ef3d cbea 39bf
00000010: 52b5 a03f 1bf9 1040 6780 5f3f d773 5fbf
00000020: 2679 42c0 103f 18bf f4c3 a4bf 810a 793f
00000030: 1a63 a93f 8e2f a13e 282f 81bf b46b 343f
00000040: cead ac3f 01ba 603c ade4 92bf d108 04bf
00000050: bbf1 bc3f 79dd 00be f611 d0bf c498 a6be
00000060: b3f1 5f3f 3447 e73f a11a 2940 b2cb cf3e
00000070: 794c 653f 73fd be3f d84e 59bf ab9d 243f
00000080: a04a 1fbe 4358 c0be 49c4 36be aa20 8dbc
00000090: d09a 1abf 3068 f23e 2386 1040 4978 cfbd
000000a0: 51e5 433f 2c80 a53f 1ccb ccbf 6098 503f
000000b0: f7a8 cf3f 9c8c 40c0 465a 58bf 6e8c aebd
000000c0: 59e4 1a40 269d 883f 56b5 f1bf a387 86bf
000000d0: e2ca 80bf 1d0c 61bf 638f a83e 2558 84be
000000e0: a67c b63e 83ee cbbf 060c 0c40 d9de 77bf
000000f0: 6f6f 9c3e 0f43 3840 6996 0ac0 7aa2 2540
00000100: 05a4 3dc0 8b18 ad3e e012 463e c046 f3be
00000110: 9375 973e 03a2 5c3f fda7 55bf 76e4 d0bf
00000120: d305 febe 1cad 953f 4545 f4be 1051 5abf
00000130: 9a4e 1840 de03 843f 302e 443f dea9 b03f
00000140: 9248 e53e c46e dfbd c146 f23f 0aa0 813f
00000150: 57f6 9f3f d181 743f b4b4 02c0 a4c2 b03d
00000160: fa17 0340 7454 3340 bb0b d23f 5b48 a13f
00000170: 2f13 52bf 8df1 4d40 3d9e f43d 35c0 293f
00000180: 3ab2 afbf f6b3 bdbf b1d2 81bf 2b91 b93e
00000190: e926 f63f 19da 32c0 484a 80bf 233a 5440
000001a0: bbb5 0c3f 65e9 5a40 912c 35b9 f846 973f
000001b0: a94a a3bf 945f 9fbf 68ca 0d3e 3498 6ec0
000001c0: 68c7 3abf 2674 7e3f f4f1 9bbf d7e5 3d40
000001d0: a5a2 c23e 16ec 30bf 9805 92be e1bb 0940
000001e0: 6a49 21bf a42e c3be 2063 8f3f 3e7c 80bf
000001f0: 7bb3 a7bf 138e 61be 4654 0040 98b4 2cbf
00000200: 2e1e 95be fc46 813f 50ae 00c0 9687 153f
00000210: e035 80be 7f28 34be 540e 3abf 0110 3cbf
00000220: 5f2f 3540 f340 37bf 773d c83e a68c 32c0
00000230: 7269 7b3f d1b7 0440 ae8a 7f40 c629 803f
00000240: e546 c4bf 81f9 3ac0 9dc6 5bbf 5370 693e
00000250: 2241 583f a62a e53e ad4c e43e 825f c1be
00000260: d8a2 863f e7f3 ddbf 24de e73e 1769 3ebf
00000270: e3cc d03f 12a5 4e3e 9a1f b33f 471c 22be
00000280: 4328 4dc0 4047 2540 3d22 c0bf a36d f03c
00000290: 3886 d83d 9e9a 92bf b0c5 c43f 85cd 07c0
000002a0: eaad 7d3f 811a b93f 6485 03c0 7ff3 11bf
000002b0: 9c46 763d 3e4c d63f e761 ad3f f3cb eebf
000002c0: 0751 24bf 01f8 9f3f 1f7f 7ebf 6aa2 493e
000002d0: 82d9 23bf 4aad 9a3f 349b 3cbf 855d 04bf
000002e0: 3334 bfbf e67c ca3f aadd b53d abc8 9c3f
000002f0: a162 d1bd 97a7 98bf d46a 7c3e 73ca 00c0
00000300: e583 4fbf 9300 813f 50b8 433c efcf 76bc
00000310: 116a ab3c b32e 2c3f d335 d53e 7f8f 0e3d
00000320: 51d3 2cbf 1416 d2be 7f2e cf3f ae71 d5be
00000330: 751b e8bf 946f 183b a07d a3bf 955c 48bf
00000340: 272c 46c0 413a fe3d 00f2 d73f 17b8 983e
00000350: c116 2cbf 723f 04c0 9456 993f ec5d 08c0
00000360: d51f 02bf ea30 b13f fcd1 0f3f 39d9 5ebe
00000370: d0e5 60bf b442 be3f e1fd dfbf 11c5 413f
00000380: 9ea0 ab3f db9d 813e cd00 00bf 9f0c d23d
00000390: f0bf 19bd 18b4 00be 3d91 3bbf 27a3 45be
000003a0: 7bc6 e43f 0931 b5bc ab39 86bf c286 2ebf
000003b0: 6d22 aa3e 84b2 963e e7f2 72bd 1665 a63d
000003c0: 074d a5bf 123a d3bf f455 4040 b077 0abe
000003d0: 57c7 ffbf eeaf 52c0 9d1c 0940 bf23 0ac0
000003e0: a6fc 0f3f e73c 03bf d622 a440 6735 183f
000003f0: 01ef 043f 7ac1 c1bc db94 773d 0f67 b73f

l2.bias f4 [300]
1.2336859 -1.4427941 -0.16335166 0.1983288 -0.08826994 -1.2682538 -0.054430567 0.33140543
-2.942869 -1.2083381 0.99372923 -0.047274467 -0.15850306 1.5591136 -0.60174567 -0.07197259
0.089292265 -0.043492407 -0.09204619 0.22738826 0.091877885 -0.5780034 -0.124686204 -1.871473
0.4263253 -2.9050503 -0.7842576 0.939618 -0.9792683 1.7102556 2.2876568 1.3472724
-2.326954 -1.1988585 0.5202027 -2.005143 -0.7931676 -0.086294815 0.19383453 0.6011073
1.3667381 -0.97308606 1.5698342 0.40426224 -0.056529365 -0.09650116 -0.10875888 -1.0497731
-1.5727148 -0.7255683 -0.09015772 -0.49498132 -0.095485985 -0.10306918 -1.6971889 -0.62296736
-1.8804241 -0.49467963 -0.10642522 -0.12742354 -0.33990127 -0.09464067 -1.9414389 -0.75792384
-0.5869608 -0.18226713 -1.3344629 0.26200324 0.030710202 -0.011548024 -0.049378764 -0.120337665
-0.08065608 -0.47319782 -0.08597006 -1.4780871 -0.06819917 -1.6977342 -0.41553277 -1.2706699
-0.021461476 0.06540373 1.7573359 -0.5239476 -1.0403582 -1.2558384 0.48837143 -0.66947377
-1.3553407 0.17748336 -0.76763403 -0.05823225 -4.84244 -0.37429017 -1.0019045 -1.9592708
-0.48566476 -0.09951548 -2.2423558 -4.727987 0.26195544 0.61778265 -1.2499115 -0.3027927
-1.5977887 -0.055656753 -0.9869404 -0.12360465 -2.059368 -0.044753373 -0.60974467 4.1806297
-0.054238245 -2.9379938 2.063606 -1.2688217 -1.2632369 1.4975443 0.12781768 -0.7790212
0.20143346 -3.7691646 -1.561051 0.85661775 -1.5856845 0.0041216374 0.7563504 -0.4180922
-0.1878136 -2.8226225 -1.3118297 -0.79393363 0.33848396 -1.6349027 -0.11457432 0.24462031
0.23299912 -0.074714184 -0.33921686 -1.57973 -0.23986693 2.373011 1.0372539 -1.1624483
-0.92197424 -0.123857 -0.07185125 -0.041890137 0.29894352 -1.7110082 0.52342314 1.1254278
-0.16666572 -0.08134516 -0.04118287 -0.0010866916 -2.1341925 2.7352293 -0.74842477 -1.1966155
-3.3742845 -0.11429728 -1.1543908 0.56338716 -0.02668833 -0.60673356 -0.1027124 1.0096848
-1.0855057 -0.71402633 1.4463114 0.22897814 -0.42911538 -0.0952616 -0.17027178 -1.519983
-0.100517616 -1.8553712 -0.092553556 -1.4753664 -0.8097039 -1.3376304 -0.06828223 0.2733895
2.2748158 -0.08268686 -0.9261069 -0.97111917 -0.9477327 0.7844411 1.2289717 -0.2731547
-1.2974963 -0.9065468 -1.3482399 -1.1168644 -1.4235672 -1.0431546 -0.96818274 -0.22362407
-0.042279344 -1.7077764 1.0757288 -0.012416833 -0.9929271 -0.77396965 -0.91769546 1.304926
-2.4524934 -2.9809177 0.07892856 -0.06667878 0.5265127 -0.739836 -2.463198 -0.19835949
-0.9222234 -0.2863613 -0.21803184 -0.11329625 -0.976736 -0.69882417 0.24027331 -0.0956431
-0.7108264 0.9608191 -0.7769211 -0.109506756 -0.020196522 -0.8241113 -0.114550695 3.1836114
2.856827 1.7240776 -1.9648606 -3.6044188 -0.10105567 -1.9153041 -0.073596336 0.42558157
1.5836159 1.3994565 -0.8423435 -1.1357576 -0.10189351 -0.13257504 1.6446363 0.47456574
-0.06423521 0.15280722 -1.1531364 -3.8772786 0.63430357 -1.6647849 -1.313417 -2.3751175
00000000: 6be9 9d3f 7aad b8bf a845 27be b416 4b3e
00000010: dfc6 b4bd 2456 a2bf 96f2 5ebd f9ad a93e
00000020: f757 3cc0 d3aa 9abf 0a65 7e3f dfa2 41bd
00000030: a04e 22be 0991 c73f 010c 1abf 5e66 93bd
00000040: ddde b63d 1825 32bd b682 bcbd 78d8 683e
00000050: 792a bc3d 08f8 13bf 7b5b ffbd 6d8c efbf
00000060: 4f47 da3e 58ec 39c0 1bc5 48bf ce8a 703f
00000070: 54b1 7abf a8e9 da3f f868 1240 6c73 ac3f
00000080: d0ec 14c0 3274 99bf 012c 053f 4354 00c0
00000090: 080d 4bbf 56bb b0bd 8f7c 463e 2be2 193f
000000a0: 46f1 ae3f 2b1c 79bf 54f0 c83f 76fb ce3e
000000b0: 568b 67bd 66a2 c5bd fabc debd f75e 86bf
000000c0: b84e c9bf d8be 39bf 9ca4 b8bd 316e fdbe
000000d0: 288e c3bd ef15 d3bd 7c3d d9bf ca7a 1fbf
000000e0: bdb1 f0bf a646 fdbe 77f5 d9bd 517b 02be
000000f0: 8a07 aebe f8d2 c1bd 1281 f8bf 4c07 42bf
00000100: 1043 16bf 3ca4 3abe aecf aabf 4a25 863e
00000110: f693 fb3c ec33 3dbc 6341 4abd 9873 f6bd
00000120: 042f a5bd fc46 f2be 1211 b0bd f531 bdbf
00000130: 02ac 8bbd 5b4f d9bf b6c0 d4be 50a5 a2bf
00000140: facf afbc 64f2 853d 62f0 e03f 6e21 06bf
00000150: 752a 85bf 50bf a0bf d20b fa3e a262 2bbf
00000160: ce7b adbf 33be 353e aa83 44bf f184 6ebd
00000170: 45f5 9ac0 f6a2 bfbe 683e 80bf 63c9 fabf
00000180: 0da9 f8be c6ce cbbd c282 0fc0 ab4b 97c0
00000190: 061f 863e 0127 1e3f 1afd 9fbf a507 9bbe
000001a0: 5784 ccbf 56f8 63bd 20a8 7cbf 6f24 fdbd
000001b0: afcc 03c0 504f 37bd 3a18 1cbf b8c7 8540
000001c0: ec28 5ebd 1708 3cc0 1f12 0440 c068 a2bf
000001d0: bfb1 a1bf 88af bf3f a3e2 023e ef6d 47bf
000001e0: 9344 4e3e fe39 71c0 85d0 c7bf 4d4b 5b3f
000001f0: b6f7 cabf cd0e 873b 2ea0 413f 2e10 d6be
00000200: 3552 40be d9a5 34c0 09ea a7bf 3c3f 4bbf
00000210: c54d ad3e 7e44 d1bf f1a5 eabd bf7d 7a3e
00000220: 5297 6e3e c003 99bd d5ad adbe 9834 cabf
00000230: ad9f 75be 6adf 1740 bcc4 843f 1bcb 94bf
00000240: 8106 6cbf bda8 fdbd c026 93bd fe94 2bbd
00000250: 200f 993e 5102 dbbf 0fff 053f 050e 903f
00000260: 6baa 2abe 4b98 a6bd 5eaf 28bd 526f 8eba
00000270: 9c96 08c0 ff0d 2f40 c498 3fbf b22a 99bf
00000280: 47f4 57c0 b114 eabd 14c3 93bf 243a 103f
00000290: 7ca1 dabc e452 1bbf e15a d2bd 5a3d 813f
000002a0: daf1 8abf 6eca 36bf bb20 b93f 3f79 6a3e
000002b0: 03b5 dbbe 8418 c3bd ba5b 2ebe ce8e c2bf
000002c0: 2edc cdbd ce7c edbf b88c bdbd ced8 bcbf
000002d0: c148 4fbf 7937 abbf 8ed7 8bbd b5f9 8b3e
000002e0: 9596 1140 ba57 a9bd 5815 6dbf 449b 78bf
000002f0: 9c9e 72bf 22d1 483f f24e 9d3f efda 8bbe
00000300: 5c14 a6bf 7313 68bf 2093 acbf 6af5 8ebf
00000310: 7337 b6bf 1786 85bf d3da 77bf b5fd 64be
00000320: 1b2d 2dbd 6b98 dabf 7bb1 893f f96f 4bbc
00000330: 7830 7ebf e022 46bf 17ee 6abf d107 a73f
00000340: a7f5 1cc0 5bc7 3ec0 4ca5 a13d e28e 88bd
00000350: 89c9 063f e465 3dbf 09a5 1dc0 c01e 4bbe
00000360: d516 6cbf f39d 92be bd43 5fbe dd07 e8bd
00000370: 5f0b 7abf 24e6 32bf 350a 763e 88e0 c3bd
00000380: b8f8 35bf 3ef8 753f 4de4 46bf 1445 e0bd
00000390: 2d73 a5bc f5f8 52bf 8e99 eabd 4ac0 4b40
000003a0: 41d6 3640 93ae dc3f 8d80 fbbf ccae 66c0
000003b0: 46f6 cebd af28 f5bf adb9 96bd d4e5 d93e
000003c0: edb3 ca3f 6421 b33f d3a3 57bf 8160 91bf
000003d0: 8bad d0bd c0c1 07be 7183 d23f 48fa f23e
000003e0: c08d 83bd 7f79 1c3e f999 93bf 5525 78c0
000003f0: b861 223f ac17 d5bf 0c1e a8bf ed01 18c0

l3.weight f4 [6, 300]
-0.031297788 -0.019394822 -0.056707866 -0.077486806 0.007823913 0.7033055 -0.046106476 0.61058766
-0.6489199 -0.054292742 0.11938752 -0.024440484 0.08225805 0.47765762 0.8997496 -0.034079127
-0.06342156 -0.031165145 0.018578412 0.14011538 -0.63144475 0.13004664 0.00060056505 -0.48270613
-0.15082647 0.37176642 -0.24888164 -0.21301772 -0.05757288 0.19481373 -0.4173275 -0.030416898
-0.08396211 -0.20719343 -0.7373334 -0.14766373 0.10619508 -0.019453071 0.4744134 -0.15461516
-0.6448538 6.017693 0.030800577 0.9842299 -0.01183359 -0.057925563 -0.029360255 -2.9035156
0.21182199 0.21968967 -0.056591198 0.44797066 -0.004189738 0.048755996 -0.7110442 -0.20143194
-0.850203 1.7314472 0.011349978 -0.041946717 -0.30389336 0.008575011 0.0045996197 0.6965607
1.3922843 0.031607226 2.8888922 -2.1985338 1.9287634 0.0074504227 -0.037895653 0.067224674
0.033008963 -0.079888955 1.1035178 -0.42543116 0.088066705 0.58343995 0.013610492 0.52935874
0.22601448 0.12724718 -0.3536321 0.17489477 0.7105943 -0.20810537 -0.15976253 2.878264
-0.9650168 -0.0017946867 -0.4376778 -0.10129892 -0.7159084 3.440703 -0.86063427 -0.67025495
-0.04801412 0.006964666 -0.5460051 -0.23020808 0.5269382 0.95200825 0.029389521 0.41081733
-0.365655 -0.02538548 0.2634966 0.06712618 -0.48451746 -0.036286436 0.16456173 -0.27332926
-0.042252433 -0.25053763 0.010783767 0.2477397 0.6354366 0.0059895045 0.6283717 0.504464
0.015436232 -0.41856998 -0.4615683 0.7700155 0.39857605 -1.0552557 -0.37980434 0.021314153
1.0470952 0.050398562 -0.4296715 0.3382006 0.41206986 -1.001881 -0.010298195 -0.0372468
-0.061539166 0.003709936 0.6559267 0.29379082 -1.0293069 -0.11524428 -0.32638097 0.0004927469
0.1457363 0.020329013 0.021709243 -0.18441169 -1.1348071 0.36321384 1.7610286 -0.008074561
0.5403743 0.095262304 0.28457358 -0.055408306 -0.013974205 0.05856796 0.14122145 0.09377255
0.73336136 0.025942283 0.031113226 0.0046346616 -0.011747829 0.17866392 -0.08289765 0.0068510566
0.8963101 0.27906767 -0.24739398 -0.581778 -2.3497689 0.0060907276 0.021418063 -1.3317423
-0.028844172 0.0042492645 0.013289397 -0.34427723 0.29780746 -0.9852127 0.020137869 0.24726039
-0.11842752 0.014968055 -0.20800588 -0.8349532 -0.4193294 0.6042193 0.11418134 -0.016156256
0.25614274 -0.7606476 0.73659617 0.30777657 0.48944807 -0.109280884 3.9094472 0.03223814
-0.09265776 -0.10826194 -0.9324198 0.17685543 0.37859592 0.16408764 -0.24633785 1.2865518
-0.44954395 0.016929395 0.118215665 -0.029870542 0.450582 0.14162865 0.6201031 1.3973577
4.2033944 -0.3824639 -0.12734957 -0.039006636 -0.07013472 -0.5807711 -0.8217344 -0.030969283
0.034580834 0.02667608 0.5310399 0.05529595 -0.041799635 -0.47333965 -0.028163921 0.013203176
-0.06656085 -0.5767541 -0.83356535 -0.43422017 -0.007953503 -0.45395285 -0.09752577 0.3149853
1.0472909 -0.4362608 0.09669421 0.14171672 -0.0071233287 0.05578052 -0.087982684 0.021399347
0.00952963 -0.03645692 0.7414183 -0.071495056 0.19527164 -0.31933653 0.35672155 -0.2628202
00000000: 1c32 00bd e4e1 9ebc 8246 68bd 67b1 9ebd
00000010: df2f 003c d40b 343f 25da 3cbd 794f 1c3f
00000020: 9d1f 26bf 1162 5ebd 7281 f43d 6937 c8bc
00000030: e976 a83d 8a8f f43e fd55 663f 8e96 0bbd
00000040: 2ae3 81bd 0c4e ffbc c131 983c 687a 0f3e
00000050: 5da6 21bf f22a 053e 3d6f 1d3a 4225 f7be
00000060: 4172 1abe 2b58 be3e d4da 7ebe 5121 5abe
00000070: 8ad1 6bbd 407d 473e f3ab d5be dc2c f9bc
00000080: 54f4 abbd 842a 54be e2c1 3cbf 2935 17be
00000090: ce7c d93d 0c5c 9fbc 50e6 f23e 7053 1ebe
000000a0: 2315 25bf f190 c040 7e51 fc3c 7ef6 7b3f
000000b0: ade1 41bc 5b43 6dbd eb84 f0bc 33d3 39c0
000000c0: dde7 583e 54f6 603e 2ccc 67bd 695c e53e
000000d0: 124a 89bb 5eb4 473d fe06 36bf 2d44 4ebe
000000e0: e7a6 59bf 10a0 dd3f 42f5 393c 52d0 2bbd
000000f0: e997 9bbe 347e 0c3c 68b8 963b cd51 323f
00000100: 5f36 b23f 9476 013d 9ce3 3840 c7b4 0cc0
00000110: b8e1 f63f ad22 f43b 7938 1bbd 17ad 893d
00000120: 6834 073d d29c a3bd 1240 8d3f 1dd2 d9be
00000130: 515c b43d 525c 153f 8bfe 5e3c 0e84 073f
00000140: 5770 673e 164d 023e 440f b5be 9d17 333e
00000150: 82e9 353f 9319 55be ca98 23be 7a35 3840
00000160: 570b 77bf b13b ebba 4e17 e0be cf75 cfbd
00000170: c645 37bf 7a34 5c40 8752 5cbf d495 2bbf
00000180: 74aa 44bd da37 e43b fdc6 0bbf abbb 6bbe
00000190: 6ce5 063f d0b6 733f 4bc2 f03c a656 d23e
000001a0: 2237 bbbe 36f5 cfbc 07e9 863e 7379 893d
000001b0: ac12 f8be 16a1 14bd df82 283e d0f1 8bbe
000001c0: e310 2dbd 7846 80be 66ae 303c 7aaf 7d3e
000001d0: f9ab 223f 9b43 c43b f8dc 203f 8d24 013f
000001e0: 40e8 7c3c ce4e d6be ae52 ecbe bc1f 453f
000001f0: 2912 cc3e 9e12 87bf b775 c2be 059b ae3c
00000200: 3707 863f b96e 4e3d e7fd dbbe a128 ad3e
00000210: d2fa d23e a33d 80bf c3b9 28bc 1a90 18bd
00000220: 7e10 7cbd 6622 733b d0ea 273f c06b 963e
00000230: 54c0 83bf 3105 ecbd 681b a7be af2b 013a
00000240: e63b 153e 0889 a63c 95d7 b13c 6bd6 3cbe
00000250: 5c41 91bf 2af7 b93e 6369 e13f 2a4b 04bc
00000260: f855 0a3f e218 c33d a1b3 913e d2f3 62bd
00000270: 10f4 64bc f5e4 6f3d 5b9c 103e d30b c03d
00000280: 92bd 3b3f e984 d43c 2ae1 fe3c 5cde 973b
00000290: f779 40bc adf3 363e 3ec6 a9bd d47e e03b
000002a0: 9474 653f f5e1 8e3e d954 7dbe 67ef 14bf
000002b0: 9d62 16c0 ba94 c73b ef74 af3c 8876 aabf
000002c0: 9d4a ecbc 6a3d 8b3b c5bb 593c 1b45 b0be
000002d0: 387a 983e e636 7cbf 2cf8 a43c d431 7d3e
000002e0: 218a f2bd 933c 753c 7eff 54be 7ebf 55bf
000002f0: 58b2 d6be 1eae 1a3f e8d7 e93d 205a 84bc
00000300: 2425 833e cdb9 42bf 9191 3c3f e494 9d3e
00000310: f098 fa3e a8ce dfbd 6234 7a40 240c 043d
00000320: 5ac3 bdbd 70b8 ddbd 10b3 6ebf 9719 353e
00000330: 53d7 c13e 9706 283e fd3f 7cbe bbad a43f
00000340: a02a e6be 84af 8a3c 0e1b f23d 11b3 f4bc
00000350: afb2 e63e 1a07 113e 14bf 1e3f 9edc b23f
00000360: 3582 8640 4fd2 c3be ed67 02be 6cc5 1fbd
00000370: cba2 8fbd 6aad 14bf 305d 52bf 4bb3 fdbc
00000380: a2a4 0d3d cb87 da3c 3bf2 073f 027e 623d
00000390: 1836 2bbd 9359 f2be 06b8 e6bc 2252 583c
000003a0: 0e51 88bd 28a6 13bf 8a64 55bf 1b52 debe
000003b0: 694f 02bc 826c e8be 97bb c7bd c145 a13e
000003c0: a10d 863f 935d dfbe 9d07 c63d 301e 113e
000003d0: d06a e9bb 1d7a 643d 4430 b4bd af4d af3c
000003e0: 2a22 1c3c da53 15bd 97cd 3d3f 006c 92bd
000003f0: 4af5 473e 1480 a3be 35a4 b63e 5f90 86be

l3.bias f4 [6]
-0.10708061 -0.5291212 -0.091177635 -0.0773247 0.16015683 0.7303779
00000000: 144d dbbd 7d74 07bf 57bb babd 6a5c 9ebd
00000010: 2700 243e 0cfa 3a3f
